Assets/ML-Agents/BestShooter.onnx (onnx, 730072 bytes, 11 tensors)

network_body._body_endoder.seq_layers.0.weight f4 [256, 185]
00000000: 9444 1d3d b8e2 b7bd 7a47 11bd 2db2 b8bd
00000010: fc2c e53c d431 f4bd c146 673d 4e1f 023d
00000020: 301f f43c d8ad f7bc d60f 7cbd 5878 cbbd
00000030: 8031 b9bd 8cc5 3abc 78c3 e2bd 7ad7 3b3d
00000040: 8495 393d 03a9 3fbe 429f 28bd a06b 883d
00000050: c618 bc3d 692c ec3c dd25 3f3d 97b0 c13c
00000060: e292 d53c 15f5 a53d 4a44 0ebe 8452 7c3d
00000070: 19f0 07bd 423d da3d fa51 2f3e 774c 423d
00000080: 877b af3d cecb 91bd 0f43 f73d aa31 07bc
00000090: 039d 2abd 0a67 c93d df7b 593d d7f2 82bb
000000a0: 7c02 173e f741 8a3d f349 09bd 7b20 21be
000000b0: 6220 b03d 6381 d9bd cf63 523d 0459 dc3c
000000c0: ee58 11be 1bb6 b4bd d412 20bd d2d3 85bd
000000d0: 59c9 37bd 71f0 203c 9c72 12bc 90aa 2abc
000000e0: 983c e4bd 3d1b 653d cdc0 d53d 5809 0abe
000000f0: e99a 973d 4311 3d3d 6cd5 503e 8f70 c8bd
00000100: effc b9bd ae81 b1bc b25c c8bd 9bb0 68b9
00000110: 4bd5 cf3c c00d 22bd b891 fc3d 8943 3a3d
00000120: d1fb ee3d a4b1 33bd da79 7dbd 1dc7 4d3c
00000130: 7015 d3bd f41c 163d c832 8b3d 3584 8dbb
00000140: a790 29bc 7976 cf3d 94df dfbc 27e4 cebc
00000150: a9ce c8bc 848d 18be e4c4 fcbb 6eae 3f3c
00000160: 72ca 543c 824a a9bd e987 55bd d58b 033e
00000170: bce0 d23c 8c2d 8b3b 6aea b03d 400c 273d
00000180: 7816 213c 1996 a6bd 5ace b2bd a5bf d83c
00000190: d0c9 86bd faae 5cbd d2c7 4abd 0eb8 3d3d
000001a0: 4e90 4cbe bd9b 49bd 5adb 9dbd 9db6 b8bd
000001b0: 96e2 58bd 34ce 63bd 0315 6dbd 91f3 d4bd
000001c0: 8c24 b9bd eaa1 82bd f028 b93d 4692 293d
000001d0: 158d bbbd 0013 85bd 927b b23d ef6f cd3c
000001e0: 8cde 3b3c c471 bcbd 4cd0 84bb 47a4 87bd
000001f0: dc67 36be ff48 053e fcb2 42bd 344a 06be
00000200: 6f20 05bd 2c3c e3bd dd55 023d dfe8 92bd
00000210: c3c9 07bd 966d 2a3d 84f1 4abd 8601 6e3c
00000220: cd8f 523d 2aa5 97bd 13db 60bd 1652 3dbd
00000230: 99ec aebc 5b32 01be 8038 ae3c b698 c83d
00000240: 3427 21bd 7d28 8cbd df52 d43d ad5a 73bd
00000250: 4ff6 3fbd 25ae bdbd 3026 1b3d bc99 273d
00000260: 3a11 683d 22fb 6abd 3e61 15bd 5d96 e13c
00000270: ff64 033e cd5f 54be 9cd2 72bc 405e b1bc
00000280: 6901 873c 301e 8cbc 4474 dabd afb3 983d
00000290: 2437 bfbd 82ed cabc dbc4 913d 624e 8ebd
000002a0: d34a 853d dec7 203e 4dfc c13d c09b a63d
000002b0: 5f3b dcbc ba2b 00be 05d5 b73d 3299 c1bb
000002c0: 3ada f33d 2fa0 833d f69b 17bd 430e 2abe
000002d0: c954 433d f799 14bd e913 4c3d 0f8c 10bd
000002e0: be39 5e3d 97eb 3dbb 023b 043d cc2c 9f3b
000002f0: 5f03 f7bc 7753 47bd a0fa 65bd f64c 1abe
00000300: dbf3 353c 77db cb3d de31 e4bd dcf9 b33d
00000310: 6235 96bd 0893 7bbd 6139 513b 0c34 423e
00000320: 7466 e0bd a34c 19be dce1 653c 5bef 20be
00000330: fa76 07bc 4742 233b ae32 67bc a799 453a
00000340: 6876 b4bd 9250 81bd 1aca 58bc fdce e7bd
00000350: 9a2d 24bd 93d2 4fbd 0eb1 7a3d fee5 023e
00000360: d3df f7bd 62fd 0d3d 1445 1fbe 46e2 883b
00000370: eb58 58bd cfb2 af3d c734 ddbd 6ad8 22bd
00000380: 4a44 e1bc 7db0 b13c 0cda e43d afe7 6e3d
00000390: 0e7c f3bd 161c 18be a375 acbc e087 a33d
000003a0: 0ef9 c13c ca7b 6abd bf3f 403d 8453 a2bd
000003b0: 0040 ecbc bcc2 b1bd 8c34 edbd 2c93 b73d
000003c0: aec0 82bd edda 6bbd e269 fcbd 37ae c4bd
000003d0: 9692 1b3e b3c4 11bd 37d2 47bd 5586 143e
000003e0: 9e88 69bc 5cac 79bd 15a3 96bd 96bc 2bbc
000003f0: 45a1 bb3d cae4 d73c 69dc aebd 9e5d 823d
0.03839548 -0.0897879 -0.035468556 -0.09018359 0.027975552 -0.119235665 0.05646396 0.031768136
0.029800028 -0.030234262 -0.06153854 -0.09935063 -0.090426445 -0.011399638 -0.11072439 0.04585979
0.045308605 -0.18716817 -0.041167505 0.06661153 0.09184413 0.02882977 0.04666697 0.023643775
0.026071016 0.08103386 -0.13893238 0.06160213 -0.03318796 0.10656215 0.17121115 0.047436204
0.08568483 -0.07118951 0.12073337 -0.008251587 -0.041653644 0.09834106 0.05309665 -0.003996234
0.14747041 0.06750863 -0.03351779 -0.15735047 0.085999265 -0.10620382 0.051364716 0.026897915
-0.1419408 -0.08823796 -0.039080456 -0.06534542 -0.044869754 0.009822951 -0.008938458 -0.010416642
-0.1114437 0.05593418 0.104371645 -0.13480127 0.07402594 0.04615904 0.20393914 -0.09787094
-0.090814464 -0.021668281 -0.09783305 -0.00022191035 0.02537026 -0.039563894 0.12332481 0.045474563
0.11669124 -0.043870583 -0.061883785 0.012559679 -0.10306823 0.036648706 0.06796795 -0.004318739
-0.010349429 0.10130019 -0.02732829 -0.025255276 -0.024512606 -0.14897734 -0.007713901 0.011699302
0.01298772 -0.08266164 -0.052131567 0.1284631 0.025741927 0.004247373 0.08638461 0.040783167
0.009832017 -0.081340976 -0.08730765 0.02645857 -0.065814614 -0.05387781 -0.04950697 0.046318106
-0.19976923 -0.04922079 -0.077078536 -0.09019206 -0.052950464 -0.055616572 -0.057881366 -0.10398019
-0.09040174 -0.06378539 0.09041011 0.041399263 -0.09157769 -0.064977646 0.087149754 0.025077788
0.0114666335 -0.092013866 -0.0040531512 -0.0662313 -0.17813057 0.13016127 -0.047533974 -0.13114244
-0.032501634 -0.11095461 0.031820167 -0.07173323 -0.0331514 0.041608416 -0.049546733 0.01452673
0.05140667 -0.074045494 -0.054896425 -0.04622086 -0.021353053 -0.12616865 0.021267176 0.09794752
-0.039344028 -0.0684366 0.10367369 -0.059412647 -0.046865758 -0.09261731 0.037878215 0.040918097
0.056657054 -0.057368405 -0.03646969 0.02753752 0.12831496 -0.2073967 -0.014820721 -0.021651387
0.016480165 -0.017104238 -0.10666707 0.07456147 -0.09336689 -0.024771456 0.07117625 -0.06948544
0.06508412 0.15701243 0.09471951 0.08135176 -0.02688378 -0.1251668 0.08976177 -0.005908155
0.11906858 0.06427037 -0.03701397 -0.16607003 0.04768828 -0.036279645 0.049823675 -0.03528982
0.054254286 -0.0028979534 0.032282837 0.004857635 -0.030152975 -0.048663583 -0.056147218 -0.15068421
0.011105503 0.09953969 -0.11142324 0.08787891 -0.07334401 -0.061419517 0.003192507 0.18965167
-0.109570414 -0.14970641 0.0140309 -0.15716307 -0.008268112 0.002491133 -0.014111204 0.00075378496
-0.08811647 -0.06314196 -0.0132317785 -0.11318777 -0.04008255 -0.05073793 0.06120401 0.12783048
-0.12103238 0.034665473 -0.15553695 0.0041773645 -0.052819174 0.08579027 -0.10801082 -0.03975717
-0.027498383 0.021690601 0.11174402 0.05832642 -0.11888896 -0.14854464 -0.021052187 0.079849005
0.023678329 -0.05724696 0.046935793 -0.079260856 -0.028839111 -0.08679721 -0.11582288 0.08963618
-0.06384407 -0.05758183 -0.12324883 -0.09603541 0.15192637 -0.035587978 -0.04878446 0.14504369
-0.0142537635 -0.06095539 -0.07355324 -0.010481974 0.09161619 0.026354212 -0.08538134 0.06365512

network_body._body_endoder.seq_layers.0.bias f4 [256]
00000000: b8d2 0a3b 3f02 84b9 9c13 59bc abc2 26bc
00000010: 83e3 42bc be1d 2fbc df22 a03b fc57 093c
00000020: f590 46bc 7bbd 61bb 1fff 4d3c d408 a3ba
00000030: 1ae8 aebb 84c4 91bb 6380 bcbc 8924 9abc
00000040: 8522 1e3c b071 40bc 17be edbb 993f f2bb
00000050: b482 41bc 4ee1 d5bc a591 22bc 1890 b5bb
00000060: 6db4 143c 8216 983c a150 9eba ad06 a5bc
00000070: 9bbf 0d3c 76f5 f93b 24c3 cc3a b947 003c
00000080: 2086 953c 0f16 45bc 0905 52bc 77f5 1b3b
00000090: edce 5fbb eca8 d23a 1260 283b 4d45 e8ba
000000a0: 7e1e db3b 260a cbbb 4a69 6f3c 2a4c f83b
000000b0: 69cb ef3b d581 8abb 49bb 08bc 5b87 49bb
000000c0: 9d49 a53c e7e2 6cbb 673b 113a 19ff 8c3b
000000d0: 46a4 97bb af49 b2bb 1bb6 c4bb c48f 85bc
000000e0: 4b68 33bc ed00 febb 6371 1abb ad92 09bc
000000f0: 556d a2bc 7c6c ff3b fd3c 433c bb78 7bbc
00000100: de58 25bb bb2c 263b b3cc 8c3c c6fb 15bc
00000110: 19ef 83bc 597b 6d3c 5437 eb39 6672 29bc
00000120: 6ad1 2d3c 288c 303b d166 95bb 5118 6abb
00000130: 72a7 983a 7969 ad3b 675f 6fbc dc05 97b9
00000140: 1286 fb3b add8 b4bb 2f3f 79bc 44ff 32bc
00000150: b646 053b 7690 37bc ec99 72bb c725 e53b
00000160: 9231 19bc a109 d2bb 4168 bd3b 8108 9d3a
00000170: 5a36 0a3c e5e4 15bc 8bc6 673b fbb3 10bc
00000180: 3bfc 8bbc b8a2 7abb ab15 3dbc a9ae c6bb
00000190: 46c0 6bb9 f04a 55ba bd52 15bc 5c72 d4bb
000001a0: 27d6 883b e529 873b f768 16bc 1ae2 dd3b
000001b0: 4e0d 13bc 77a6 e43b 896a 033c 3a2b a43a
000001c0: 298c dc3b 31a0 db3b 152f bdba 3ece 41bc
000001d0: 636f 83bc def8 02bb 5d9c f3bc 6cfa b03b
000001e0: 6062 293b 72c6 43bc aba1 1ebc 51fe 033c
000001f0: b6d4 423b c29f a7bc 9fde a2bc 8e67 bdbb
00000200: 236e 913b c153 4ebc 55e1 f73b d373 ac3a
00000210: aedc 593b 0f96 033c d25f dfbb 5ac0 283c
00000220: fb63 94bc aafa 343b 2400 363c eb81 6c3a
00000230: c237 0e3a 2096 20bb f5eb 89bb a5a9 bfbb
00000240: be63 aabb 60e9 44bc 8dd1 00bb 486a 843b
00000250: d9a6 02bc e7ce e1bb 5610 253b 14ea c7bb
00000260: d2aa 703a 8d5e 753b 0ead 5a3b ee34 99bc
00000270: 7c4d 2f3a c5e9 303b 51ef 9eba 72e0 94bb
00000280: 1674 9f3b 5d10 59bc 8072 07bc f2f6 98ba
00000290: 24ca 31bb 6640 2bbc 4591 c1ba a046 903b
000002a0: 7ae6 d1bb 4fa6 07bb e9b6 a1bb 7c31 2a3c
000002b0: bdff 79bc f224 843b 5205 c83c 2c23 76bb
000002c0: 0af3 27bc 0a00 0cbc 438d 6dbc 535f 6d3b
000002d0: 3327 c23b bd5b a93b bfc9 29bb 41bb 083a
000002e0: 7e34 c0bb d58c b23b 379b 873b 6f34 1dbc
000002f0: 4c2c da3a d942 883b 9238 b83b e2e4 95bc
00000300: aa86 623b 347a 0f3b 934a b0bc 0ca3 32bc
00000310: eb55 55bc c9a4 013c 7bee ff3a e406 92bc
00000320: bbda 5bbb ae90 5d3c ea6c 843b eae2 83bc
00000330: b752 eabb 5db9 99bb f73f d6bb 394a 41bc
00000340: 863f a939 5e1d 92bb 7b64 16bb 77d7 073a
00000350: 48dd c0ba 21a9 83ba a7d4 f2ba eaf7 553b
00000360: 640e b93b a5ec 7dbc a5e5 88bc 724d 323b
00000370: e06a 8fbb 3544 25ba 932d b63b df0e 6d3a
00000380: b85b 7ebb 80c9 bcbb 572d d03b 84b1 f0bb
00000390: 4084 773b ec28 8a3b 2e43 2fbc 1dbf 7d3b
000003a0: 2c0e aaba 8878 bc3b 1fc1 053c db1a 4a3b
000003b0: db9a 80bb bd3f 963b 0161 7a3c 76b1 1cba
000003c0: 7f97 013b 0e8c aa3c f6d5 b1b7 6242 87b9
000003d0: 4292 7ebc ce39 7a3b 93ec cf3a ce14 2cba
000003e0: 4bde f33b cd0c f5b7 c1c9 323a 6abb 3fbc
000003f0: c6ff febb c6ff a6b9 75ee e0bb 5bee 07bb
0.0021182727 -0.00025178675 -0.013249304 -0.010178248 -0.011895063 -0.010688243 0.0048869695 0.0083827935
-0.012119521 -0.0034445215 0.012573033 -0.0012438544 -0.0053377273 -0.0044484753 -0.023010438 -0.01881625
0.009651785 -0.011745855 -0.0072553265 -0.0073928353 -0.011810947 -0.02610841 -0.00992242 -0.005540859
0.00907622 0.01856542 -0.0012078473 -0.020144785 0.008651639 0.007628138 0.0015622121 0.0078296
0.018252432 -0.012029185 -0.012818583 0.0023797431 -0.0034150437 0.0016072071 0.0025692028 -0.0017720849
0.0066869846 -0.006196278 0.014612505 0.007577439 0.0073179496 -0.004226903 -0.0083454335 -0.0030750844
0.020176703 -0.0036145987 0.00055401627 0.004302871 -0.004627737 -0.0054409127 -0.006003154 -0.016303904
-0.010950158 -0.007751575 -0.002356612 -0.008396787 -0.019827524 0.0077949148 0.011916396 -0.015348609
-0.002522997 0.0025356251 0.017187452 -0.009154266 -0.016105222 0.01449474 0.00044863916 -0.010342216
0.01060901 0.0026939008 -0.004559376 -0.003572006 0.0011646582 0.0052921143 -0.014610148 -0.0002880533
0.0076758945 -0.005518994 -0.015212818 -0.010925118 0.0020336336 -0.011203876 -0.0037018014 0.006993029
-0.009350197 -0.0064098393 0.0057802503 0.0011980684 0.00843581 -0.009148811 0.0035366144 -0.008831973
-0.017088046 -0.003824396 -0.011540811 -0.0060633016 -0.00022482974 -0.0008136472 -0.009113965 -0.0064833593
0.0041759196 0.0041248673 -0.009180299 0.006771338 -0.00897534 0.006977852 0.008021005 0.001252509
0.0067305756 0.006702446 -0.0014433587 -0.011828957 -0.016044324 -0.0019984762 -0.029737646 0.0054009464
0.002584599 -0.0119491685 -0.009682099 0.008056239 0.0029728836 -0.02046192 -0.019881545 -0.005780167
0.004438178 -0.012593211 0.0075647035 0.0013157077 0.0033243108 0.008031382 -0.0068168426 0.010299766
-0.01811408 0.0027615228 0.011108432 0.0009022045 0.00054251787 -0.0024503544 -0.0042090365 -0.0058490806
-0.0051998785 -0.012018532 -0.0019656152 0.00404099 -0.00797435 -0.0068911198 0.002518674 -0.0061009023
0.00091807276 0.003744039 0.0033367309 -0.018701997 0.0006687266 0.0026994806 -0.0012125765 -0.0045433575
0.0048661334 -0.01324853 -0.008267045 -0.0011670275 -0.0027128542 -0.0104523655 -0.0014768025 0.0044029504
-0.006405649 -0.0020698493 -0.0049351347 0.010387775 -0.015258727 0.0040327245 0.0244166 -0.0037557585
-0.010250816 -0.008544931 -0.014499011 0.0036220148 0.005925083 0.0051684068 -0.0025907604 0.0005215891
-0.0058656326 0.0054489174 0.004138376 -0.009595021 0.0016645282 0.0041583595 0.005621978 -0.018297616
0.003456513 0.0021892907 -0.021519935 -0.010903131 -0.013020973 0.007912823 0.0019526029 -0.017825551
-0.0033547122 0.013523264 0.004041304 -0.016099412 -0.0071509737 -0.0046912865 -0.006538387 -0.011797481
0.0003228152 -0.0044590672 -0.0022948075 0.0005181948 -0.0014714384 -0.0010044911 -0.001852651 0.003264899
0.0056474674 -0.015498315 -0.016711066 0.0027206806 -0.004376754 -0.0006304414 0.005559632 0.00090430485
-0.0038811993 -0.0057613254 0.006353061 -0.0073453803 0.0037768036 0.004216304 -0.010697169 0.0038718649
-0.0012974194 0.005751673 0.008163719 0.003083876 -0.00392471 0.004585235 0.015281917 -0.00059773715
0.0019774137 0.020818736 -2.1199678e-05 -0.00025798666 -0.0155378 0.0038181427 0.0015863351 -0.00065643794
0.007442271 -2.9212237e-05 0.0006820225 -0.011702398 -0.0077819554 -0.00031852553 -0.006864364 -0.0020741436

network_body._body_endoder.seq_layers.2.weight f4 [256, 256]
00000000: 33d3 963d 39f3 8c3d f956 233d 5683 063d
00000010: 1c1f 683d 500d fdbd d4c2 a13d 71c0 053b
00000020: 716b 37bd b672 b03d 6bf5 50bd f9b2 2d3e
00000030: 7c3d a53d 1fba c83d 327b aa3d 46e1 cfbd
00000040: d299 0fbd fe69 2cbd 1d2c a3bc a9aa d4b9
00000050: 9b2f a3ba cbeb 103d e253 56bd fb35 213d
00000060: aab0 8dbd 0783 28bb a382 173c f8f4 7cbd
00000070: 61f8 e7bb 67db b33d 223d e33c aca1 14bd
00000080: ebee 45bd 6e1b 7a3d a375 10bc 9567 4cbb
00000090: 93c0 e23c 276e 0bbe 18f2 0ebc 4493 82bd
000000a0: 452c 283c d410 cebd a5ec 49bd afdb 123d
000000b0: 25c4 d2bb ecbb 8e3b a3f8 fb3c 1b1e 083e
000000c0: 00f4 363b 6758 8d3d 97ec 793d 500c 5ebd
000000d0: 993c 833d 44f0 acbd 9f8f 693d feb3 fe3d
000000e0: 42ac 46bd 26d5 133d a981 013e 0bd0 a3bd
000000f0: 3126 e13c 8ef6 e0bd 6735 b03c 2d72 f13c
00000100: d6ca 9fbc 6d1e 263d 6af8 8e3d 0467 f0bc
00000110: b3b4 0a3d f0c4 c6bc 5b53 e9ba 99db 933c
00000120: 6e29 99bd 0bbd 593c bd0d 1c3b 3f48 45ba
00000130: c1db b23d 532b 8a3c cff6 48bd 3513 123d
00000140: 14a2 eebb 4e3e a83d c912 593d 8cf6 b03c
00000150: 1ab0 5dbd dd19 a3bb 2d8c 96bd 3ea2 24bc
00000160: 0937 a03c 83aa c8bc 7b97 573d ac11 993d
00000170: cb41 00bd c1ba 89bd 6dee 0fbe a2e0 c73c
00000180: 305c a0bd 4276 9e3c a61a 053e 1477 e7bd
00000190: 194d 193d f6e4 6e3b 37a5 b9bd dfb8 103d
000001a0: 05b5 683c 781b 553d 2927 cabd 152b 763c
000001b0: 9648 1abd 6475 463d 50c8 33bb 84d2 3fbe
000001c0: 3375 453d 0c27 3fbb 8c37 2c3d 2c94 05bd
000001d0: 374b d13d f764 a43d ffd0 923c a8d1 813d
000001e0: 8604 893d 5639 d43d 06f9 283d 106e 01be
000001f0: 696c bc3d 37af 543d 9a29 b6bd cb9c 8b3d
00000200: b5bf 893d 6647 7ebd fa80 533d acf8 963c
00000210: e052 293d 7749 27bc f854 003d dd13 88bd
00000220: 468b 8ebb 67df 3c38 3468 30bc c5c3 413d
00000230: 0773 31bc 2f58 e9bd 4035 0dbd e96f 42bd
00000240: 453f e7bc a4a7 673d 6c57 28bd c175 e4ba
00000250: afb4 f63c 5f93 0c3e f4fe 6c3d 74ed eebd
00000260: 8fb8 b0bc 71de 82bc 081c 043d b8c5 673d
00000270: d8f0 35bd d38a e3bd 9368 9d3c e98b 8d3d
00000280: 1c09 f7bc e1ca 01bd 4312 b4bd a388 873d
00000290: 4dc8 283d 24ad 9f3d 926c 2fbc 737a 2e3c
000002a0: bd1f 5ebd 1166 013b 6241 22bc 9e9e 7fbd
000002b0: 4c01 dd3a cb51 34bd cf73 9cbd de1a 98bd
000002c0: fb95 863c 103a 7cbd 77af 20bd 0b28 89bc
000002d0: 6826 7cbd f5d6 dabd 650b 46bb ca66 4c3d
000002e0: 5b84 a83d 3c64 86bd 35f8 67bc 3d78 253d
000002f0: 1e0d fa3d 75d7 1c3c b359 b9bb d1d8 3b3c
00000300: 28a6 b23d 996a d2bc 1d52 373a 3f04 fabd
00000310: 2170 b13c 128c d13d 426c 0cbd f65c b33c
00000320: 13e3 d83a 5406 07bd 831e 67bc db3e 763d
00000330: 0a56 c6bd 7e3e 9dbd a588 ff3c e8f2 15be
00000340: c815 273d be6f aebd 3212 813d 8d22 c3bd
00000350: 346c 18bd 67a7 ae3b d57e 3fbe b6ea 70bd
00000360: d3fc c7bc 732f 7e3c 08cd b3bc 9453 9abd
00000370: 9a39 463d 5889 22bd f475 603c 52aa a2bc
00000380: 1eb5 b0bc b606 2fbd 281f 123d 725b 483b
00000390: 116d 0fbd e00a 9c3d 3e54 b6bd 7f55 f7bc
000003a0: 9b96 76bd 8486 1dbd 9b92 153d e79f 883c
000003b0: 08ca ecba d6b6 b73c 542f 803c fc57 9cbc
000003c0: b61b 3e3d cead 7ebd 786b 803c c7b0 1ebd
000003d0: a9d2 f7bc 41d3 c63c cd9d 17bd 5ae7 27bd
000003e0: 48c3 3ebd bb34 e5bd ce4c 053e 7967 42bd
000003f0: dadc a23d 0aa1 f4bd 270d c3bd 8539 6f3a
0.07364502 0.068823285 0.039877865 0.032840095 0.056670293 -0.12356055 0.07898489 0.0020408893
-0.0447802 0.086156294 -0.0510153 0.16962804 0.08068368 0.09801125 0.08324279 -0.101503894
-0.035058804 -0.04209327 -0.019918496 -0.00040562943 -0.0012450101 0.03538112 -0.05232609 0.03935812
-0.069184616 -0.0025712864 0.009247455 -0.061757058 -0.0070791696 0.08782082 0.027739111 -0.036286995
-0.048323553 0.061061315 -0.008817109 -0.003118967 0.027679717 -0.13616239 -0.008724712 -0.06375745
0.010264461 -0.100618035 -0.049297947 0.035854038 -0.0064320737 0.004355898 0.030758208 0.13292734
0.0027916431 0.06901627 0.061016645 -0.05421096 0.064080425 -0.084442645 0.057021733 0.124366745
-0.04850412 0.036091946 0.12647118 -0.079986654 0.027484031 -0.109845266 0.02150984 0.029473389
-0.0195059 0.04055636 0.06980975 -0.029345997 0.033863734 -0.024263829 -0.0017801331 0.018049048
-0.07478605 0.0132897 0.00238119 -0.0007525719 0.08733321 0.016866362 -0.0490635 0.03566285
-0.007282505 0.08215009 0.05299643 0.021601938 -0.05412302 -0.0049774484 -0.07350955 -0.010048447
0.019557493 -0.024495369 0.052634697 0.07474074 -0.031312745 -0.067250736 -0.14055796 0.024399105
-0.07830083 0.0193435 0.12998447 -0.11302009 0.03742704 0.003645239 -0.09064715 0.035332557
0.014203315 0.05202815 -0.098707505 0.01502492 -0.03766688 0.048451796 -0.0027432628 -0.18732649
0.048207473 -0.002916756 0.04204516 -0.03261201 0.10219424 0.0802707 0.017921923 0.06338817
0.06690316 0.103624985 0.041253112 -0.12639642 0.09200365 0.05192491 -0.088946536 0.06817015
0.06726018 -0.06207981 0.051636674 0.018429123 0.0413388 -0.0102103865 0.031331033 -0.066444136
-0.004350099 4.5030753e-05 -0.010767031 0.04730584 -0.010830647 -0.11393773 -0.03447461 -0.047470007
-0.028228411 0.05655636 -0.041098997 -0.0017430113 0.030115454 0.13728093 0.05786033 -0.11666384
-0.02157238 -0.015975209 0.032253295 0.056585044 -0.04441914 -0.11110463 0.019214904 0.06911451
-0.03015571 -0.03168762 -0.08792546 0.06617858 0.041206647 0.07796696 -0.0107070375 0.010649311
-0.054229487 0.0019744674 -0.009903284 -0.06240713 0.0016861348 -0.044023316 -0.07639276 -0.074269995
0.016428938 -0.06157881 -0.039229836 -0.016742727 -0.061560065 -0.10685531 -0.0030219194 0.049902715
0.0822837 -0.06562087 -0.014158298 0.04039787 0.12209533 0.009572853 -0.005656445 0.011465267
0.08723098 -0.025685595 0.0006993132 -0.12207841 0.021659913 0.102317944 -0.03428293 0.021894913
0.0016547166 -0.03296502 -0.014106396 0.060118537 -0.096843794 -0.07677935 0.031193087 -0.14643443
0.040792257 -0.08517407 0.063022986 -0.095280744 -0.037212566 0.0053300145 -0.18700726 -0.058817588
-0.024412548 0.015514242 -0.021948352 -0.075354725 0.048394777 -0.039681762 0.013699997 -0.019856606
-0.021570738 -0.04273101 0.035674244 0.0030572084 -0.035016123 0.07619262 -0.08902787 -0.030192135
-0.060202222 -0.038458362 0.036516767 0.01667781 -0.0018065581 0.02242605 0.015647568 -0.019084923
0.046413146 -0.06217747 0.015676245 -0.038742807 -0.030251818 0.024270656 -0.037015725 -0.04099212
-0.046572953 -0.11191698 0.1301758 -0.04746196 0.0795228 -0.11944778 -0.09523993 0.00091256975

network_body._body_endoder.seq_layers.2.bias f4 [256]
00000000: 6e0f 40bc 8332 783c e919 4bb9 504a 08bb
00000010: 8438 24bb ce3e 27bc ba9c f1bb 7c60 c63c
00000020: 1647 0a3c 13e0 13bb 1abe 8339 c799 00bc
00000030: 1b64 cbba 3973 513a 3fd8 463c e2a1 92bb
00000040: 67c6 a5bc 858d 6dba a693 cbbb 0f66 99bc
00000050: 9eec 4f3b 6584 3d3c 8d7d df3b fba8 b4bb
00000060: 483e 94ba 1758 a1bb b708 4abc 1ed8 583c
00000070: 3a0e 03bc 5ba4 a53b ce53 eebb eaa8 303b
00000080: ef19 2f3c 21c4 f0bb 7469 ab3a 8738 a7bc
00000090: 47f3 1dbc 0632 10bb 0f35 72ba af74 fdbb
000000a0: ae99 f1bb 1e75 b1b9 91e9 ff39 093a 4abc
000000b0: 8d1b 253c bece c03a 461d 3bbc a711 78bc
000000c0: 3968 1cbc 8029 0dbb 5225 2939 7f79 09bc
000000d0: 994c b639 311a 43ba a3c5 99bb b162 b7bb
000000e0: e694 62bb 65fa c83b 0039 19bc 2653 0abc
000000f0: a8c9 12bc 193f 3fbb 0bde 2ebc f8e0 dc3a
00000100: 8b21 f0bb b6da 0fbb 738f 633b cd93 963b
00000110: dec1 49bc a505 4bbb 85ce 753b 93bd 4a3b
00000120: 07f0 81ba 06b0 3dbc 3495 f2bb b8cf 4abc
00000130: 3e1c 53bc f9ba 453c a65c 2bbb 92f0 21bc
00000140: f7e6 473b 7d3b 11bb 6d71 ca3b cb17 bd3b
00000150: a467 6c3a bffc ba3b 7fff 4ebc 80a0 a0bb
00000160: 23c6 9abb 36a8 4bbb 476a bfbb fcda 803c
00000170: 74ab 713c eacb 6fb8 0efe 633a 7b8c ecbb
00000180: d119 8ebc aa59 193c da56 59bc 8e09 c83b
00000190: 6e94 67bc 60cb 52bb be77 1dbc 9ecc 54bc
000001a0: 2ac0 b7bb 757f e9ba 324f e7bb 0a44 8ebb
000001b0: ed71 a73b 3845 acb9 4691 00bc 9e4d 58bc
000001c0: 7bbf b73c 10f1 483c 5f91 bcbb 48e0 073c
000001d0: 6903 bebb 6146 953b 2da0 d6b9 efe2 31bb
000001e0: e857 e23b c7b9 283c 846d 6bbb 9a39 d3bb
000001f0: 3bac 0bba fcee 21bb 016a eebb 4e4d a23b
00000200: b34c 37bb 2979 febb 7794 9a3c a4c7 f6bb
00000210: 5ce1 d8bb d46b ea3a 8757 aebb b3a5 e3bb
00000220: 9c46 463c 1943 93ba c87f 133b 2d27 b73c
00000230: b8d3 903b 6375 3a3c e515 01bb 44fa 4a3b
00000240: 7341 a1bc cb58 a7ba 12a8 3fbc 5316 26bb
00000250: 4f56 15bc 0dee 7d3c 3bff 193a e1b7 79ba
00000260: 119a a9bc 382e 1fba 6022 843b d7db 8abb
00000270: 5343 c1bb d812 85bb 03ef 143b a7c9 1bbc
00000280: 17ff 5cbc 42f0 10bc c8a4 a6ba d916 b23b
00000290: 0301 7cba 3330 9fbc 3dd5 233c 4e01 803c
000002a0: ddd4 1a3c 3cc1 29bc 0603 81bb e55d ffbb
000002b0: d493 a33b 4c7b 083b 6873 43ba c97b 4c3b
000002c0: 6bbd 073b 57dd 92bb 2a50 77bb 0db4 e6bb
000002d0: 9117 4dbb 1636 523c 2917 b9bb 7d73 f93b
000002e0: fb6a dabb cec6 29bc 846a 923b 4721 90ba
000002f0: 98c8 ffba 5cb9 74ba 8aa7 223b 9b92 bfbb
00000300: 51f7 303c 41e0 21bc 90f5 e33b de54 7cbb
00000310: 6f76 93bb 0aeb 19bb 3e19 3a38 68d5 13bc
00000320: 6ba0 c1bb efc7 debb 1c0b 35bc 927a 70bc
00000330: b42c f6b9 f348 ee3b 18dd 17bc 521c 8b3a
00000340: 7e5e 573b 524b 6e3b 4257 793b 4bea a23b
00000350: f9b0 0cba 705e 60bb 661e c6bb 2263 f6bb
00000360: 77fb 723b 954e 07bb eef7 0dbc a430 08bb
00000370: 89d6 4fbc 75c5 153b e4d8 aeb9 c6ed 90bc
00000380: 7769 1ebc 4445 d23b 85a6 673b ad12 083c
00000390: d4b8 adbb 1d04 3c3b e081 2abc ffd0 87bb
000003a0: 0160 73bb ebd8 19bc fc8a 9fbb aa47 61bb
000003b0: 5f2e bb3a fbdf 1dbc 87b9 0dbb cf07 c0ba
000003c0: 997f 94bb c4f1 f03b 361d 0f3b 0099 bcbb
000003d0: 0a3e 3fbb 2ada 45bc 8ee7 2ebb f599 733b
000003e0: 6f05 f7bb f7df 2ebc 146f 0ebc 4e3a a23b
000003f0: 469c 7dbb eebb d53b f267 6dbb b16f c2bb
-0.011722429 0.015148762 -0.00019369241 -0.0020796247 -0.00250581 -0.010207845 -0.0073734196 0.02421593
0.0084398 -0.0022563979 0.00025127904 -0.007849163 -0.0015517505 0.0007989887 0.012136518 -0.0044748643
-0.020236207 -0.00090619206 -0.0062126694 -0.018725423 0.0031726728 0.01156721 0.0068203867 -0.005513308
-0.0011310065 -0.004923831 -0.012331179 0.01323512 -0.007998997 0.005054993 -0.007273174 0.002695615
0.010687335 -0.007347599 0.0013077692 -0.020412697 -0.009640521 -0.0022002473 -0.0009239474 -0.007734857
-0.0073730564 -0.0003384733 0.0004881141 -0.012342938 0.010077369 0.0014710051 -0.011420554 -0.015140927
-0.009546333 -0.0021539629 0.00016130999 -0.008390783 0.00034770815 -0.00074425625 -0.0046927496 -0.0055964817
-0.0034573614 0.006133365 -0.009351969 -0.008442676 -0.008959211 -0.0029181896 -0.010673056 0.0016851714
-0.0073282174 -0.002195043 0.0034722954 0.004595256 -0.012314288 -0.0030978706 0.0037507128 0.003093575
-0.0009913453 -0.011577612 -0.0074030403 -0.012378626 -0.012885151 0.012068504 -0.0026147752 -0.009884017
0.0030502656 -0.0022160702 0.006178072 0.0057706586 0.0009018129 0.005706399 -0.012634157 -0.0049019456
-0.004723327 -0.0031075603 -0.0058415267 0.01572942 0.01475035 -5.717195e-05 0.000869722 -0.007218895
-0.017346295 0.0093597565 -0.013265336 0.0061046546 -0.0141345095 -0.0032164678 -0.009611068 -0.012988238
-0.0056076245 -0.0017814474 -0.0070590014 -0.004341607 0.0051100166 -0.00032857968 -0.007847136 -0.013202099
0.022430172 0.012264505 -0.0057546343 0.008293219 -0.0057987464 0.004555509 -0.000409366 -0.002714332
0.006907452 0.010298199 -0.003592343 -0.0064460756 -0.00053280935 -0.0024709096 -0.0072758202 0.004953063
-0.00279693 -0.0077659083 0.018869622 -0.0075311232 -0.006618662 0.0017884918 -0.0053204927 -0.006947243
0.0121017955 -0.0011235207 0.0022506583 0.022357548 0.00441977 0.011380526 -0.0019696888 0.0030971924
-0.019684529 -0.0012767551 -0.011697786 -0.0025342896 -0.009114816 0.01549865 0.0005874519 -0.0009525996
-0.020703347 -0.0006072256 0.004032418 -0.0042376327 -0.0058979183 -0.0040610842 0.002272547 -0.009508527
-0.0134885525 -0.008846344 -0.0012713904 0.0054348526 -0.0009613188 -0.019432163 0.00999957 0.015625622
0.009450165 -0.010361012 -0.003937128 -0.0077931755 0.0049919877 0.0020825444 -0.00074558565 0.0031201711
0.0020712267 -0.004481952 -0.003773699 -0.0070405067 -0.0031294564 0.012830278 -0.005648513 0.007612644
-0.006665585 -0.01036234 0.004468264 -0.0010996246 -0.0019514738 -0.0009335482 0.00248191 -0.005846334
0.010801152 -0.009880126 0.0069567636 -0.0038502733 -0.0045002024 -0.0023486041 4.4369364e-05 -0.009023048
-0.005909016 -0.0067987363 -0.011050012 -0.014677661 -0.00046954083 0.00727188 -0.009269021 0.0010613299
0.0032862718 0.0036360812 0.0038046394 0.0049717776 -0.0005366947 -0.0034235977 -0.0060461042 -0.007519142
0.0037076154 -0.0020646204 -0.008665068 -0.0020780945 -0.0126854265 0.002285329 -0.00033349462 -0.017691504
-0.0096686995 0.0064169485 0.0035347056 0.008305234 -0.0053015742 0.0028688975 -0.010406941 -0.0041447873
-0.003713608 -0.009390096 -0.004868863 -0.003437499 0.0014280787 -0.009635921 -0.0021625475 -0.0014650765
-0.0045318124 0.0073530395 0.002183748 -0.0057555437 -0.0029181265 -0.01207594 -0.002668831 0.0037170623
-0.0075384895 -0.010673515 -0.008693475 0.004950798 -0.0038697883 0.006522647 -0.0036225286 -0.005933725

network_body._body_endoder.seq_layers.4.weight f4 [256, 256]
00000000: 2395 94bb 9d8e 31bc 61db cabd a3d1 a93d
00000010: 4cd7 cf3d 61bc 9d3d ee52 d7bc 3077 313c
00000020: c222 12be dfd5 223d c0d4 6fbd d10c 983d
00000030: 78d7 e8bc 5d7d 8a3d c067 623c e29a 213d
00000040: a2d0 db3c 337c 68bd 1811 513d 3f76 97bd
00000050: e5a1 223e d2e7 6e3d f761 3cbd 6944 7cbd
00000060: f85c b03b 8762 20bd ca27 a83d 3bd2 263c
00000070: ebf9 9c3d f9a9 853d b020 6ebd 085d 7ebd
00000080: 9873 efbd d5f1 91bd ad32 8fbb 2e4d 923c
00000090: 3dd0 a43d aff8 123d 2534 fabc 83b0 913d
000000a0: 837a 1c3d a315 19bc add5 8f3d f906 fcbc
000000b0: 1210 213d e860 b4bc 6087 83bd aff4 53bb
000000c0: 6209 ef3d eca3 473c 6869 dd3a d21f 053e
000000d0: 9b50 863c 8141 3f3d 36ea 7dbc aeec 393d
000000e0: ce01 57bc 10ec 313d 6acb 24bd fe9b 83bd
000000f0: 63ed 183d 803a 6dbd 0b3c 0d3d baab 2a3d
00000100: f606 03bc 72a1 153d f979 853d a234 5f3d
00000110: 4c21 813b 5c05 043c b621 143d 04b1 40bc
00000120: 7e5c 6c3d ca34 8abb f5f0 92bb 8482 9c3c
00000130: ee21 46bc 8772 15bc 4f32 3abc 8325 16bd
00000140: ad30 8ebd 31c2 403d e704 cb3b e5c7 8fbd
00000150: 5532 05bd 56ab 1c3d 157a 3d3d e548 8fbd
00000160: eee4 9b3c e030 0c3d 2ef7 4abd b4d4 ffbd
00000170: fe0c f1bc 94e8 4dbc eaaf 49bd 59f4 eabd
00000180: 27d5 903d 8c77 7b3d b57d 8c38 a559 1abd
00000190: 8b29 093c 8419 533d 9dd2 50bd 1b9e e33c
000001a0: ee87 6cbc 0a23 483d f9e8 45bd 595a 5ebc
000001b0: 0ab5 ebbd e099 adbd 59ab a8bd 8136 0abd
000001c0: 8c14 e5bd 10c0 42bd b495 26bc 0020 79bd
000001d0: 4d8e a5bc d1be 5dbd 1d58 aabd e9ac b5bd
000001e0: 5dbc c8bd 261a b5bc e34d abbd 7840 d03d
000001f0: 0308 f8bd 812a a8bb b3f5 f3bd 6517 42bd
00000200: cbe5 f73c f629 edbc 6a58 30bd 6c91 0ebd
00000210: 5e6d bfbd 9750 c93d f382 04bd 7877 e23d
00000220: c801 223d a883 4f3c dd28 44bc 6713 963b
00000230: 5f7e 873d 5232 88bd 3977 a9bd 20c6 04bd
00000240: 152a 293d 4614 81bd 41d2 f3bb 0f7b ab3b
00000250: eb8c 3cbe ba7c 69bd c8bc b9bc 0f46 b73c
00000260: 0d7a 8e3d a22c df3c bb4d 34bd 537f a33d
00000270: b819 113e 35ad 48bd 3fca da3c 3be3 e13d
00000280: 3a9d 6a3c 3bd3 67bc 455a 24be d425 c4bd
00000290: 3e78 8fbd 6433 5b3a 6a5a 3cbc 9dde 79bd
000002a0: 0f27 593c a904 283d 667c ec3a be9a 96bd
000002b0: 146c 523c af39 503d 8d50 29bd 0a56 a9bc
000002c0: ec64 1fbd 26d1 cc3d 5b33 e03b 01a4 83bc
000002d0: b3b7 863d 6985 bfbc 8674 e23c a016 7cbd
000002e0: 8452 913c 0e6e 7b3d 1ebd fe3c e81a e2bb
000002f0: 8ab5 0f3d 3543 143d c300 143d d72f 03bd
00000300: 1231 5cbc 7c07 09bb 05e7 4cbd 0acc f63c
00000310: 3e7e 0a3d c9ae 82bd 8afb 3ebc a004 e8bd
00000320: d25d dd3c 22bc c9bd 27c5 2bbd 5104 b5bc
00000330: 3688 e0bc e6c3 e0bc 94b2 86bc 2b5d b1bc
00000340: dcc8 f2bc 7c10 86bd c4e8 99bc b095 d43c
00000350: ca35 4c3c 3f10 e13c 5cbe 92bc 35e2 75bd
00000360: a381 a03d 27c6 9c3d e06f 6b3d 4821 a13c
00000370: ca93 dc36 efe1 f33d 8f56 873c 6301 0fbd
00000380: 8767 943d e769 1ebe dbdf 15bd 970b 903d
00000390: 485b 61bd 7696 ccbd d616 873c cddb 983d
000003a0: 1086 13bd 086e c8bc 684b bb3c bcf4 98bc
000003b0: 977f 313d 70a3 aabc b45f a1bc 4fd0 cdbb
000003c0: 5298 0dbd c9b9 bb3c 56e7 29be 3907 bfbc
000003d0: d683 ad3d 55e6 d6b9 9fe7 37bd 858c 4dbc
000003e0: 2ff1 003d 97a8 b0bb 2dac 3bbd 81b5 613b
000003f0: 2db2 3cbd c068 d8bd 76ed 9d3d 496f aa3d
-0.00453438 -0.010837224 -0.099051245 0.08291938 0.101484865 0.07701946 -0.026284661 0.010831639
-0.14271072 0.039754745 -0.058552504 0.074243195 -0.028423056 0.067621924 0.013818681 0.03945435
0.026832882 -0.05675907 0.051041692 -0.073956005 0.1588207 0.05832655 -0.045991864 -0.06158868
0.0053821765 -0.039156463 0.08210714 0.010181959 0.076648556 0.0652656 -0.058136642 -0.06210044
-0.1169197 -0.07126204 -0.0043700547 0.017859068 0.08047531 0.035881694 -0.030542443 0.07113745
0.038202774 -0.0093435375 0.07023177 -0.030765044 0.039321966 -0.022018865 -0.06422305 -0.0032341888
0.116717115 0.012185078 0.0016892375 0.1300042 0.016395858 0.04669333 -0.015497735 0.04539173
-0.013122989 0.043438017 -0.040233053 -0.064262375 0.037335765 -0.057917118 0.03448109 0.041667677
-0.007997265 0.03653092 0.06517405 0.054493554 0.003940737 0.008057918 0.03616496 -0.011760954
0.057705395 -0.0042177187 -0.0044842907 0.019105203 -0.01209305 -0.009121544 -0.011364534 -0.036656868
-0.06942878 0.047060195 0.0061956528 -0.07020549 -0.032518703 0.038249336 0.046259005 -0.069963254
0.01903006 0.0342263 -0.049552135 -0.12491742 -0.02942514 -0.012567658 -0.04924003 -0.11472387
0.070719056 0.061393306 6.699135e-05 -0.037683148 0.008371721 0.051538005 -0.050982106 0.027785351
-0.014436705 0.04886154 -0.048317883 -0.013571345 -0.1150914 -0.08476615 -0.08235807 -0.033743385
-0.1118556 -0.047546446 -0.010167528 -0.060821533 -0.020209456 -0.054137055 -0.083175875 -0.088708706
-0.098015524 -0.022107195 -0.08364465 0.101685464 -0.12110903 -0.00513202 -0.11912098 -0.047385592
0.030260941 -0.028950673 -0.04305307 -0.034806654 -0.09347032 0.098298244 -0.032351445 0.11057943
0.03955248 0.012665667 -0.011972633 0.0045799497 0.066159 -0.06650223 -0.08274693 -0.03241551
0.0412999 -0.06302695 -0.0074408357 0.0052331756 -0.18413131 -0.057003714 -0.022673026 0.022372274
0.06956873 0.027242962 -0.044019442 0.079832695 0.14169967 -0.048993308 0.026707767 0.11029669
0.014319712 -0.014149482 -0.1605006 -0.09577528 -0.07005356 0.0008361845 -0.011496166 -0.061003316
0.013253941 0.04102007 0.0018042445 -0.073537335 0.012843151 0.05083626 -0.041336585 -0.02067091
-0.038914606 0.100008294 0.0068420595 -0.016069414 0.065780066 -0.023379045 0.027643453 -0.061545014
0.017739542 0.061384253 0.031096037 -0.00690018 0.03508524 0.036196906 0.03613354 -0.032028046
-0.013439434 -0.0020909002 -0.050025005 0.03012659 0.0338118 -0.06380994 -0.011656651 -0.11329007
0.027022276 -0.098503366 -0.041936066 -0.022096785 -0.0274087 -0.027437162 -0.016442575 -0.021650871
-0.029636793 -0.06546113 -0.01878775 0.025950283 0.012463996 0.027473567 -0.017913036 -0.06003018
0.07837226 0.07654982 0.05747974 0.01966919 6.573716e-06 0.11908328 0.016520767 -0.03491343
0.07246309 -0.15470086 -0.03659044 0.070334606 -0.055018693 -0.09989636 0.016490381 0.07463799
-0.036016524 -0.02446653 0.022863105 -0.018671386 0.04333457 -0.020829886 -0.019698955 -0.006280936
-0.034569092 0.022915738 -0.16592154 -0.023318874 0.08472411 -0.00040988871 -0.044898625 -0.0125457095
0.03148001 -0.005391191 -0.045818496 0.003444046 -0.04606836 -0.105668545 0.07711308 0.08322007

network_body._body_endoder.seq_layers.4.bias f4 [256]
00000000: be5b 86bb 809c 373b b91c 38bb 8a52 19bc
00000010: aec1 8e3b 18ce d7bb 4352 adb9 fb3f 60bc
00000020: 8fd6 ebbb c08d 133c 092e d1bb d00c e73b
00000030: 4bc7 52bc 23cb b33b 0f25 fd39 3741 a6bb
00000040: 5344 383c b04d dd3a 8a6c d53b 5680 f6bb
00000050: 949b 0439 4a31 b63b 837c 5fbb b489 b0bb
00000060: bd3d cf3b b5ed 213c 7d7f 84bb 5a94 9ebb
00000070: 79a5 25bb 3373 4fbc 0691 d93a 26f7 98ba
00000080: 4778 b0bc 8a3a 2fbc ae1a 973b 5fc6 8c3c
00000090: ad6c 85bb 85cd bf3b 84ff 303b cf21 aebb
000000a0: fea0 323b 29ea 06bc 0757 b3bb 4e91 aebb
000000b0: 38eb cd3b 8bf8 cabb 9888 49bb 0342 ebbb
000000c0: e2aa 7cbc ff9f 4539 9f8f 7e3b 8a89 87ba
000000d0: 492d 5fbb 8f83 b6bb 2bf6 84ba cacb b2ba
000000e0: cd8f 26bc 0a5f 603a fc7d 463c 11e6 a53b
000000f0: 0134 a63b 398a 2abb a163 073b e7b7 09bc
00000100: ce97 0fbc f70b 403c ee5f 183c 9757 2cbb
00000110: 03e4 ea3b ef12 923b 6dda 393c f5e8 33bc
00000120: 82df 22bc e546 bf3a 1874 be3b c40e 61bb
00000130: 1d0c 30b9 16c5 273b e583 39bb 0ecb f1bb
00000140: bc86 053b cb3b 4439 0c52 e13a 36b5 b7bb
00000150: 9612 8a3a 2b1e 3abb 79b5 2abc cfde 91bb
00000160: 5374 a1bb ebcd 8c3b 7135 9236 4d0e 213c
00000170: 09be b33a dc72 a93b da9b b63a 3a99 663c
00000180: 2342 cbb8 8074 6f3c f280 fa3a 925f 013c
00000190: cf9f 2e3c b71a 35ba 05cf 6e3b ca35 1a3b
000001a0: 548f a13b c7e5 12ba a77d 81ba 83de dcbb
000001b0: 2bd5 f0bb 1db0 6fbb ca0d 093b 9e2b 303c
000001c0: db02 ce3b 8a5a 2fbb 6d4a e6ba e85a 98bb
000001d0: d72b 243b 4b29 2d3b a097 803c 566a 063c
000001e0: f3b6 02b9 7fdf 7a3c 5843 a5ba 3012 e6bb
000001f0: 1800 0ebb 5185 17bb 00e9 03bc 7bad 0a3c
00000200: 256a 33bb 1e7e de3b 6c33 0e3c 520f 89bb
00000210: ea06 f4bb b0a9 623b 554f 55bb 85ba 7bb9
00000220: f941 78bc 80e9 a639 bb69 ea3b 0ebb b0bb
00000230: ce55 813c 2136 1cbb 0d89 e03b b6ce b13b
00000240: a299 453b 0f8e 2cbb 9b37 07bc ac44 82bb
00000250: 0aa1 26ba 6f18 83bb 4581 563a 60cd 03bb
00000260: 515e 83bb 5f38 2ebb a238 53bc 7708 333b
00000270: 00fc d03b 7f68 2bba 1176 71bc 4520 4dbc
00000280: e174 3f3b 0169 cdba 5445 283b c037 543b
00000290: 6d8a babb 5780 febb bebc 2f39 e091 613a
000002a0: db93 473b d1e9 623b 4048 133b 28d7 163b
000002b0: c50e 65bb 79b3 96bb 35ad a93b e14f e03b
000002c0: 1715 b1bb 4d93 813b d9eb 433c b6be 90bb
000002d0: 4bea e13b c547 c0bb d12b 3b3c 32a4 543b
000002e0: fe95 3a3c 8b1e 5ebc 92fc 453c b469 b1ba
000002f0: d865 4b3b a7f1 993b 4b0c 1dbc 36b4 fbb9
00000300: d451 f1bb 91f5 a63b 822b 12bc 566d 56bb
00000310: e2cb 133c 7bb8 d1bb c978 75bb 57f8 0d3c
00000320: a7a5 453c c12f 9dbb 9d17 313c 0c92 3cbc
00000330: a908 d7bb 3dce 10bb c9d5 e238 a581 923b
00000340: a361 92ba 629c bbbb 13da b1b9 556e 5d3b
00000350: 22db adbb 461b b9bb be4b 95bb 991a 84bc
00000360: 919b dcba eebf c6bb afd5 463c 8e8b 0b3b
00000370: e8ca ccbb 4a35 94bc b187 5b3c 3ce7 baba
00000380: 6bfb 1cb9 1386 36bc 0a24 963b dc75 a0ba
00000390: 0ab1 143c 04dc 303c 15e7 dd39 f48f e03b
000003a0: a04f 6d3c 9ee2 ab3a 3f38 24bc da77 6ebc
000003b0: 0d1a 9cbc 1705 253b c10c 00bc 0aa9 cdbb
000003c0: d3a0 fbba 40ea 34ba 0652 73bb bc7e ebbb
000003d0: 6ba7 0bbc ab9d 3abb 546b 06bc d0ad 9c3b
000003e0: c823 90bb 28e1 d33b e5dd 91ba 0c22 353b
000003f0: e436 92bb d3a5 31bb 4ece 1a3a 8c9e a0ba
-0.004100292 0.0028016865 -0.0028093292 -0.009358058 0.0043565845 -0.0065858476 -0.0003305842 -0.013687129
-0.0071972082 0.009005964 -0.0063836616 0.007051088 -0.012864898 0.0054868623 0.0004828353 -0.005073692
0.0112467585 0.0016884115 0.006513183 -0.007522623 0.00012646458 0.005560075 -0.0034101314 -0.0053875092
0.0063244984 0.009883334 -0.004043518 -0.004839462 -0.0025275631 -0.012661743 0.0016599006 -0.0011670336
-0.021541728 -0.010695109 0.0046113348 0.017184434 -0.004071793 0.0058533573 0.0027007768 -0.005314089
0.0027256603 -0.008234539 -0.005473021 -0.0053273803 0.006284144 -0.0061941794 -0.0030751582 -0.0071795
-0.015421601 0.00018846987 0.003884293 -0.0010340672 -0.0034054092 -0.005569882 -0.0010144165 -0.0013641056
-0.010166121 0.0008559084 0.012114998 0.0050628264 0.0050721173 -0.0026022329 0.0020658749 -0.008405662
-0.00876422 0.011721603 0.009300215 -0.0026297325 0.0071682944 0.0044578235 0.011343581 -0.010980834
-0.009940984 0.0014593272 0.0058121793 -0.0034341076 -0.0001678918 0.002559965 -0.0028307375 -0.0073789423
0.0020374497 0.00018714291 0.001719059 -0.005606319 0.0010534103 -0.002839933 -0.010419243 -0.0044516097
-0.004927197 0.0042970083 4.3573605e-06 0.00983007 0.0013713251 0.005171163 0.0013931945 0.014074618
-9.692113e-05 0.014615178 0.0019111915 0.007896321 0.0106582185 -0.0006908583 0.0036439311 0.0023530596
0.004930416 -0.00056036975 -0.0009879366 -0.0067403927 -0.0073496304 -0.0036573478 0.002091276 0.010752587
0.0062869615 -0.0026756846 -0.0017569788 -0.0046495087 0.0025050545 0.0026422318 0.0156973 0.008204063
-0.0001246592 0.015312075 -0.0012608571 -0.007021211 -0.0021667536 -0.0023120234 -0.008051157 0.0084642125
-0.00273765 0.0067899367 0.008679252 -0.0041827345 -0.0074471133 0.0034586005 -0.0032548506 -0.0002400671
-0.015152448 0.00031835958 0.0071537173 -0.0053933924 0.015787985 -0.0023835974 0.006852275 0.005426253
0.0030151387 -0.002632979 -0.0082530035 -0.0039754715 -0.0006356394 -0.0040007154 0.0008182715 -0.0020111427
-0.004009046 -0.0026583893 -0.01289192 0.0027318278 0.006377697 -0.00065387035 -0.014737622 -0.012519901
0.0029213952 -0.0015671552 0.0025676088 0.0032381862 -0.005692771 -0.007766764 0.00016759612 0.0008604806
0.003045312 0.0034624229 0.0022473484 0.0023016427 -0.003495143 -0.0045990315 0.0051781186 0.00684546
-0.0054041254 0.003954327 0.011958086 -0.0044172658 0.006894385 -0.0058679306 0.011424021 0.00324465
0.0113883 -0.013557087 0.012084143 -0.001353553 0.0031036045 0.0046979967 -0.00958545 -0.00048008718
-0.007364491 0.0050951918 -0.008921506 -0.0032718978 0.009020777 -0.0064001656 -0.0037456027 0.008665166
0.01206342 -0.0047969525 0.0108088525 -0.01150943 -0.0065623117 -0.0022095584 0.000108163404 0.0044710212
-0.0011168014 -0.0057254294 -0.0003392255 0.0033787687 -0.0053056637 -0.005649003 -0.0045561483 -0.016125964
-0.001683103 -0.0060653603 0.012135907 0.0021292898 -0.0062497742 -0.018091816 0.013399051 -0.0014259587
-0.0001497098 -0.011140364 0.004581933 -0.0012242156 0.0090754125 0.010794643 0.00042324574 0.006853098
0.014484316 0.0013113802 -0.010023176 -0.014554942 -0.01905539 0.0025180036 -0.007815541 -0.0062762545
-0.001919771 -0.0006901361 -0.0037127747 -0.007186739 -0.008523802 -0.0028475325 -0.0082043 0.0047814623
-0.0043987967 0.0064660497 -0.0011128752 0.0027638702 -0.00446211 -0.0027106896 0.00059053756 -0.0012254282

action_model._continuous_distribution.log_sigma f4 [1, 3]
00000000: bcb8 763d 35fc 2b3d aca8 26be
0.06023477 0.04198857 -0.1627528

action_model._continuous_distribution.mu.weight f4 [3, 256]
00000000: d14e 07bc 79b2 c0bb 0555 813b 45d5 3cbb
00000010: 011f cdbc c2e3 2f39 3276 e6bc 02b6 e6bb
00000020: ce71 43bc 8bd0 6c3a 62aa fd3b 5f2f 603b
00000030: 230c 6cba 2617 653a 49ac a0bc 1727 003c
00000040: 0fc7 eb3b f899 32bc ec85 123b 10a9 bc39
00000050: 6d6c b5bc 4d2a e0bb 309e 693a f21b 05bc
00000060: d674 01bc 710d a7ba 5858 5ebb 4ab8 39bc
00000070: dc99 d7ba e2c1 953c 39ea bebb a255 1d3c
00000080: d277 03bc 0743 52bb 3c25 5ebc 5250 4abc
00000090: 9b00 48bc 9558 453c 7c46 603b af6b 37ba
000000a0: e7f1 a5bc 7676 b63c cb44 1f3b 9420 523c
000000b0: edc7 fcba d3d7 77bb c796 20ba 1501 083c
000000c0: a634 1a3c 150f 70bb 9a82 cfbb 03eb c6bc
000000d0: 5963 6e3c 33b6 90bb fce5 b4b9 59a1 c6bb
000000e0: 68a0 97bb 8724 203c fd61 e7bb 7f2a e8bb
000000f0: e201 e1bb 9203 af3c 71cd b7bb bfd5 dc3a
00000100: c902 f1bb 2987 ccbb 7a94 90bc e4fd 5fbc
00000110: 7de7 36bc 64a4 57bc de09 bebb 8f52 bdba
00000120: 0dde bd3b a748 e7bb 11d2 9a3a 01ad 123b
00000130: 51e5 51bc 2fbf 0abc edea d5ba b8e2 b3bb
00000140: 36ca 4bbc f4ed b5bb f67e f43a 35f3 f83b
00000150: 3701 75bb 0a0f 7bbc 10b1 433b 96fe aebb
00000160: a5b8 073c 467a d4bb 94d2 99bc 1822 b53a
00000170: 342a a83c cca7 9bbb f56e 6bbc fd78 4ebb
00000180: add5 33bc 6b73 79bb 951b 003c 82b1 33bb
00000190: 6676 7f3b 850f 14bc 42eb 2cbc 58e7 bfbb
000001a0: 2000 8f3c 223b a13b 5666 5f3c 7f38 5a3c
000001b0: c4af 93bb 3783 b43b 1428 513a bfa9 c43b
000001c0: 9c82 2a3c d824 f23b 8a43 8ebc a9cc 85bb
000001d0: 8017 103c 9b33 153c 6d12 b63b bd21 4bbc
000001e0: 5d8e 89ba 3895 0e3b 3e67 c3bb 6cf2 f83a
000001f0: 0ff7 86bb fcea 31bb 956f aabb 206a 1abc
00000200: 6feb 82bc 553c 73bc 774a 093b d7e2 95b9
00000210: 7211 5b3b d71c 5abc 2264 223b 9c8b 84bb
00000220: 35bb d6ba ef49 ff3b 03f1 a7bc f29d fab9
00000230: e8be a7bc cc5c ec3b 4d02 d13b 9ae2 d8bc
00000240: ef94 92bc 0d0d 283c 3349 b4b9 eadc c9bb
00000250: ab8c 67bc 47ad 883b 7aa9 ac38 1f69 fbba
00000260: f009 26bc bd19 77bc 2b0d 873c 4c2c 113c
00000270: e48c 85bb f173 2dbc a465 9f3b ac1b 24bc
00000280: b736 bcbc 4fb8 b73b 51e4 4439 0de5 84bc
00000290: d21f fcba 0b17 a43a 2f8b 833a e8c5 ff3b
000002a0: cd18 8bba 6b66 c03b 8f1d 7abb a29e 58bc
000002b0: ff56 2ebc baaf 23bc 976c 01bb 97a4 f23a
000002c0: 5e5a e2bb 107e 8939 e4ea a2bb f106 4dbc
000002d0: 85eb 4a3c 96a7 ceba 6d4d 51bc 50ea d7bb
000002e0: cef2 30bc 8ac1 c43b dfde 9c3b 0fd4 38ba
000002f0: e014 60bb 9fe8 e1b7 fe78 3cbb 9192 eabb
00000300: 4713 e73b 96a3 e73b 33e9 71bb 48c7 5a3b
00000310: 78af 8ebb f8fd 3dbb 925e 37bb 554f 0bbc
00000320: 4615 f3bb 7930 133c adb7 803a 0443 c53b
00000330: a0c9 253a 1f15 f53a 6a36 263b 41f5 f43b
00000340: b85f 01bc 728c f2ba 54c6 393c 24f0 d83a
00000350: cb64 81bc fe54 903b 0726 c8bb 724d 1bb8
00000360: 8eac 333a e031 8e3b 9145 ae3b 0c59 833b
00000370: abe4 5a3c d719 133c 1bf0 c33c a520 cfbc
00000380: 359f ec3b 5d88 ea3c f586 53bc 8f6e 6a3c
00000390: 0aac 8d3b 522e 9abc f4c3 4abc 9710 73bc
000003a0: fbc5 e63a f4df f037 c224 143b fb5b 5b3b
000003b0: 5ddd f4bb 6c36 1ebc 5a7a 2b3c 58c0 22bc
000003c0: 4865 53ba aa6b 81bb 22b2 ba3b 8853 16ba
000003d0: ba73 2f3b d503 c3bb a113 863c fe91 c4bb
000003e0: efc6 193c 58e1 013c 7826 ca3c b560 9ebc
000003f0: faa2 ecbc 1285 6cbb d86a bc3b 04eb d7bb
-0.008258537 -0.0058806506 0.0039469027 -0.0028813642 -0.025039198 0.00016774147 -0.028132532 -0.00704074
-0.011928989 0.0009033761 0.0077412585 0.0034207923 -0.0009004494 0.0008739106 -0.019613402 0.00782182
0.0071953605 -0.010900967 0.0022357656 0.00035984116 -0.022146428 -0.00684098 0.00089118164 -0.008124338
-0.007901391 -0.0012745095 -0.0033927169 -0.011335442 -0.0016449052 0.018280927 -0.0058262614 0.009602936
-0.008024173 -0.0032083408 -0.013558682 -0.012348251 -0.012207176 0.012045045 0.00342217 -0.0006996942
-0.02025695 0.022273283 0.0024302478 0.01282515 -0.0019285657 -0.003781785 -0.0006125983 0.008301039
0.009411966 -0.0036630083 -0.0063327076 -0.024281984 0.0145500535 -0.004416251 -0.00034503627 -0.0060617146
-0.004627276 0.009774334 -0.0070612417 -0.007085144 -0.0068666795 0.021364007 -0.0056092073 0.0016848369
-0.0073550683 -0.0062416983 -0.017648924 -0.013671372 -0.01116359 -0.013161752 -0.005799516 -0.001444416
0.005794293 -0.0070582214 0.0011811872 0.002238095 -0.012811021 -0.008468433 -0.0016320624 -0.0054896735
-0.012438348 -0.005552048 0.001865356 0.007597352 -0.0037384757 -0.01532341 0.0029860176 -0.0053404076
0.008283769 -0.0064843027 -0.01877717 0.0013819365 0.020527937 -0.0047502276 -0.014369716 -0.003150522
-0.010976237 -0.003806318 0.007819076 -0.0027419035 0.0038980483 -0.009036903 -0.010554137 -0.0058564357
0.017456114 0.0049203793 0.013635239 0.013319134 -0.004507037 0.005508806 0.00079786894 0.0060016806
0.010407116 0.007389646 -0.01736619 -0.0040832353 0.008794665 0.009106542 0.0055563957 -0.012398181
-0.0010494698 0.0021756422 -0.005963235 0.0018993146 -0.004118807 -0.0027148118 -0.00520129 -0.009424716
-0.015981404 -0.014845927 0.0020948926 -0.00028588503 0.0033427146 -0.01331254 0.0024778922 -0.004044963
-0.0016382696 0.007790796 -0.020500666 -0.00047801394 -0.020476773 0.0072132107 0.006378448 -0.02647524
-0.017893283 0.010257018 -0.00034386813 -0.006160368 -0.014132659 0.004171047 8.2331666e-05 -0.0019181109
-0.010134205 -0.01508182 0.016485771 0.008860659 -0.0040756334 -0.010586725 0.0048644114 -0.010016363
-0.022975309 0.005606688 0.00018777071 -0.016222501 -0.0019235557 0.0012519074 0.0010035987 0.0078055747
-0.001061225 0.005871584 -0.003816459 -0.013221415 -0.010640859 -0.009990627 -0.0019748562 0.0018512186
-0.0069077453 0.000262246 -0.004971849 -0.012513862 0.012385254 -0.0015766497 -0.012774807 -0.0065892115
-0.010800077 0.006004517 0.0047873105 -0.0007050642 -0.003419213 -2.6930413e-05 -0.002875864 -0.0071585854
0.0070518586 0.0070690615 -0.003691268 0.003338294 -0.0043544136 -0.0028990488 -0.0027979952 -0.008502801
-0.0074183075 0.008983725 0.0009820365 0.006019952 0.0006324295 0.0018698311 0.0025362023 0.0074755256
-0.007896356 -0.0018504991 0.011338789 0.001655106 -0.015795132 0.004404663 -0.006108049 -3.7027006e-05
0.0006854021 0.0043394417 0.0053183516 0.004008418 0.013360183 0.008978329 0.023918202 -0.02528412
0.0072211274 0.028629476 -0.012910594 0.014308586 0.004323487 -0.018820915 -0.01237582 -0.014835498
0.001760661 2.8714516e-05 0.0022604917 0.0033471573 -0.0074726776 -0.00965653 0.010466183 -0.009933554
-0.00080641033 -0.003949602 0.0056975046 -0.0005734493 0.002677186 -0.0059513845 0.016366782 -0.005998849
0.009385808 0.007927261 0.024676546 -0.019333223 -0.028886307 -0.0036090058 0.0057500415 -0.0065892953

action_model._continuous_distribution.mu.bias f4 [3]
00000000: 58d7 c7ba 7d84 1dbb e7e7 2abb
-0.0015246673 -0.0024035268 -0.0026078166
