Assets/ML-Agents/MoveToTarget.onnx (onnx, 75098 bytes, 7 tensors)

network_body._body_endoder.seq_layers.0.weight f4 [128, 6]
0	0x3e21ed3a	0.15813151
1	0x3db70ded	0.08938203
2	0xbd493117	-0.04911908
3	0x3e7e63c6	0.24842748
4	0xbf0a2abe	-0.5397147
5	0x3ec1ce2f	0.37852618
6	0xbe2f18eb	-0.17099349
7	0x3e6dc03f	0.23217867
8	0x3e2a639e	0.16639563
9	0xbf3568d9	-0.7086311
10	0xbcff264a	-0.031146187
11	0x3f38b4ea	0.7215105
12	0x3eb7ef8d	0.3592495
13	0x3e38d258	0.1804899
14	0xbeb04ae0	-0.34432125
15	0xbe628706	-0.2212182
16	0xbef3f3cb	-0.47646937
17	0xbe83f95c	-0.25776184
18	0x3e7984e3	0.24367099
19	0x3f3de5ae	0.7417859
20	0xbf0cfae9	-0.5507036
21	0x3ee5dc5a	0.44894677
22	0xbed75521	-0.42057136
23	0x3ec41cf1	0.3830333
24	0xbe19d8eb	-0.15024154
25	0x3e7cfbd5	0.24705441
26	0xbe540828	-0.20706236
27	0x3e4071e6	0.18793449
28	0x3e9b9b75	0.30392042
29	0x3df878d3	0.121324204
30	0x3eab3ce1	0.33444884
31	0xbed599e8	-0.41718984
32	0x3f32f3d7	0.6990332
33	0x3e67b78c	0.22628611
34	0xbd9cd891	-0.07658494
35	0xbed33975	-0.41254774
36	0xbe6e1048	-0.23248398
37	0xbe04e8f6	-0.12979493
38	0xbe792cb3	-0.24333458
39	0x3ed88dbd	0.42295638
40	0x3d0cd7e3	0.034385573
41	0xbbe1c45d	-0.0068898634
42	0xbd875598	-0.066081226
43	0xbd29e5e9	-0.041479025
44	0xbe3e7d18	-0.18602407
45	0xbef2f1f6	-0.47450227
46	0xbe0ff9ea	-0.14060178
47	0xbef06569	-0.4695237
48	0x3eaf438e	0.34231228
49	0x3e0fee12	0.1405566
50	0xbe2d7a8c	-0.16941279
51	0x3eb40a7d	0.35164252
52	0xbdb33490	-0.0875026
53	0xbec0041e	-0.3750314
54	0xbe46d485	-0.19417007
55	0xbe4dc9fa	-0.20096579
56	0x3f23997d	0.6390608
57	0xbea21425	-0.31655994
58	0xbe75455a	-0.23952237
59	0xbe63e78b	-0.22256295
60	0xbdc40f40	-0.09573221
61	0x3e890e21	0.26768592
62	0x3d788507	0.06067374
63	0x3d4acbb4	0.049510673
64	0x3e6c7b8f	0.23094009
65	0xbc8883a9	-0.016664343
66	0x3f7a1524	0.9768851
67	0x3e932b39	0.28743914
68	0xbe1495c4	-0.14510256
69	0xbe8ecbd3	-0.2788988
70	0x3e683691	0.22677065
71	0xbe2c4830	-0.16824412
72	0x3c32f69c	0.010923054
73	0x3f1631e9	0.58669907
74	0xbc7dfe94	-0.015502591
75	0x3f41deda	0.7573067
76	0xbf294395	-0.66118747
77	0xbd19ae01	-0.03751946
78	0xbf372948	-0.71547365
79	0x3df682b5	0.12036649
80	0x3e41acc5	0.18913563
81	0x3f5c2ead	0.8600872
82	0x3e84969c	0.25896156
83	0xbf01ebd2	-0.5075046
84	0x3e594630	0.2121818
85	0xbf40e0b9	-0.753429
86	0x3e9308d1	0.28717664
87	0xbf0093cd	-0.50225526
88	0x3d4510f7	0.048111882
89	0x3d8838f3	0.06651487
90	0x3f140e10	0.5783396
91	0x3e3dca71	0.18534257
92	0x3ed4dfa4	0.41576874
93	0xbed6099e	-0.41804212
94	0x3da3333f	0.07968759
95	0xbe938986	-0.2881586
96	0x3f019abb	0.50626725
97	0x3db656ce	0.089032754
98	0x3ed15d19	0.4089134
99	0xbef5016e	-0.47852653
100	0x3eca59be	0.39521593
101	0x3efb505a	0.4908474
102	0xbeb00e4a	-0.34385902
103	0x3eb8316d	0.3597521
104	0xbccfc4e1	-0.025362434
105	0x3e819cee	0.2531504
106	0x3f6a20b0	0.9145613
107	0xbd22d8ad	-0.03975742
108	0xbe887aa9	-0.26656082
109	0xbec0de16	-0.37669438
110	0xbf171620	-0.59018135
111	0x3dd22459	0.10260839
112	0xbeab7c6c	-0.33493364
113	0x3f0145f2	0.50497353
114	0x3ed99646	0.42497462
115	0x3d47a08e	0.0487371
116	0x3f01dfc3	0.5073206
117	0xbde74ec2	-0.11294319
118	0xbd3193a5	-0.043353695
119	0x3ec71540	0.388834
120	0x3e54314f	0.20721935
121	0x3d1b854e	0.037968926
122	0x3d9e4103	0.07727244
123	0xbdbc5029	-0.09194977
124	0x3eae5128	0.34046292
125	0x3e973899	0.29535368
126	0xbe91785f	-0.28412148
127	0xbe860dc7	-0.26182386
128	0xbee9a0a4	-0.45630372
129	0xbda58786	-0.0808249
130	0x3b132698	0.0022453424
131	0x3bd8e9b1	0.006619655
132	0x3ed7ecc2	0.4217282
133	0xbe2563fe	-0.16151425
134	0xbe159215	-0.14606507
135	0x3e461cd3	0.19346933
136	0xbe848657	-0.25883743
137	0x3e42f282	0.19037822
138	0x3f7ae0ac	0.9799907
139	0xbf0c6485	-0.5484088
140	0xbe842c67	-0.25815126
141	0x3d64ab28	0.05582729
142	0xbd1807e3	-0.037116896
143	0x3e3252a7	0.17414342
144	0xbeb94d5d	-0.36191836
145	0xbe337b7d	-0.17527576
146	0xbec5862b	-0.38578925
147	0x3d7a4dc3	0.061109316
148	0x3e0e65eb	0.13906066
149	0x3e469329	0.19392075
150	0xbed604f7	-0.41800663
151	0x3dfbcefc	0.122953385
152	0xbcd946b4	-0.026522972
153	0x3f3e4ff6	0.7434076
154	0x3f3d00a1	0.73829085
155	0x3e4d6789	0.20059027
156	0xbdf0450a	-0.11731918
157	0x3d91ddba	0.07122369
158	0xbe7c0d5a	-0.24614468
159	0xbd7de16c	-0.061982557
160	0xbf5ffea7	-0.87497944
161	0xbe782786	-0.24233827
162	0xbf05a287	-0.5220112
163	0x3e96c365	0.2944595
164	0xbe846b2f	-0.25863025
165	0x3f0b037f	0.5430221
166	0xbd253ac4	-0.040339246
167	0x3e58d08f	0.21173309
168	0x3f407274	0.7517464
169	0xbd824ff0	-0.06362903
170	0x3e86e4dc	0.2634648
171	0x3e1e17be	0.15438744
172	0xbf4cc444	-0.7998698
173	0x3e2002a3	0.15626006
174	0x3dd6f7d9	0.10496492
175	0xbe893271	-0.26796296
176	0xbe85540e	-0.2604069
177	0xbee66582	-0.4499932
178	0x3e94d3e1	0.290679
179	0x3e464cb7	0.19365202
180	0xbd1142e3	-0.03546418
181	0x3f29fc3b	0.664005
182	0xbe18003e	-0.14843842
183	0xbd993074	-0.07479945
184	0x3f39932a	0.7249018
185	0x3e769ba6	0.24082813
186	0x3ea3e8b4	0.32013476
187	0xbce627e8	-0.0280952
188	0xbf06d400	-0.52667236
189	0xbd51d281	-0.051226143
190	0x3dc64b25	0.096823014
191	0x3f810ca3	1.0081981
192	0x3e15244e	0.1456463
193	0xbe83d6d0	-0.25749826
194	0xbcd712fc	-0.02625417
195	0xbf2dcd24	-0.67891145
196	0x3e885a0c	0.266312
197	0xbddc50cc	-0.10757598
198	0x3f559648	0.83432436
199	0x3d3b2869	0.045692835
200	0x3d82643b	0.06366774
201	0xbe036a30	-0.12833476
202	0x3e66e61e	0.2254872
203	0x3e8aa5fa	0.27079755
204	0xbe851e6b	-0.2599977
205	0xbef287fa	-0.47369367
206	0x3e1deb8a	0.15421882
207	0xbebb0dac	-0.36533868
208	0x3e2b0269	0.16700138
209	0xbddefd06	-0.10888104
210	0x3ca179be	0.019711372
211	0x3e42eb9d	0.19035192
212	0x3e8eb90d	0.27875558
213	0x3f5ab7f8	0.85436964
214	0x3e5104c5	0.20411976
215	0x3c77d46f	0.015126332
216	0x3e3039b9	0.1720952
217	0xbd25bafe	-0.040461533
218	0xbe4d4aa2	-0.20048001
219	0xbed5411e	-0.41651243
220	0x3f25c55d	0.6475428
221	0x3e8f4d05	0.2798845
222	0x3da8f171	0.08249176
223	0x3d5c0bfb	0.053722363
224	0x3edd8bc5	0.43270698
225	0xbf07609d	-0.52881795
226	0xbef8f63d	-0.48625365
227	0xbf4f94b5	-0.81086284
228	0x3e1ea6ca	0.15493312
229	0xbed378ac	-0.41303003
230	0xbd6fc66d	-0.058538843
231	0xbd04c295	-0.03241213
232	0xbdf4ecfe	-0.11959265
233	0xbef96501	-0.48709872
234	0x3e4fe702	0.20302966
235	0xbe3007dc	-0.17190498
236	0xbf1b7a37	-0.6073336
237	0xbf85849e	-1.0431097
238	0xbe0db2db	-0.13837759
239	0x3ed1b1ab	0.40955862
240	0xbd346c73	-0.044048738
241	0x3c0a0ecc	0.008426379
242	0x3e2ed939	0.17075051
243	0xbef8b740	-0.4857731
244	0x3f14ce79	0.5812755
245	0x3e8f3b08	0.27974725
246	0xbd28e632	-0.041235156
247	0xbd8406c6	-0.064466044
248	0x3f4bba6b	0.79581326
249	0xbe6a5096	-0.22882304
250	0xbe0b26d2	-0.13589028
251	0x3e8d2753	0.27569064
252	0x3f32f13d	0.6989935
253	0x3ea67d69	0.32517555
254	0x3dbbd333	0.091711424
255	0x3ad6c780	0.001638636

network_body._body_endoder.seq_layers.0.bias f4 [128]
0	0x3a32bdda	0.0006818451
1	0x3bc4c9f9	0.0060055223
2	0x3b664629	0.0035137034
3	0xbc932b9c	-0.01796513
4	0x3c8ff609	0.017573373
5	0x3b43e3a6	0.0029890328
6	0x3d0118ac	0.03151767
7	0x3c2ce5b0	0.010552809
8	0xbc5cd1f1	-0.013477788
9	0x3ba83a91	0.005133935
10	0x3ba28865	0.004960107
11	0xbcbbd532	-0.022928808
12	0x3cbddc05	0.023176203
13	0x3c4e9e0b	0.012610923
14	0xbb3171a9	-0.0027075803
15	0x3bc01a34	0.0058624987
16	0xbb353522	-0.0027650078
17	0xbcb3abb0	-0.021932453
18	0xbbd830ef	-0.00659763
19	0x3d06e316	0.03293141
20	0xbc5df6a7	-0.013547576
21	0xbc85d958	-0.01633899
22	0x3cc7a85a	0.024372268
23	0x3c864425	0.016389916
24	0xbbc18ba4	-0.005906539
25	0x3bc09680	0.005877316
26	0x3bc4e765	0.0060090297
27	0x3b00f0f8	0.0019674879
28	0xbc81c35e	-0.015840229
29	0x3ba35c17	0.004985343
30	0x3d02699b	0.031838994
31	0x3b8c4cee	0.0042816317
32	0x3a80ef9e	0.0009837036
33	0xbc17d88d	-0.009267938
34	0xba7d8218	-0.00096705696
35	0x3cda1ab8	0.026624069
36	0x3b516e35	0.0031956558
37	0x3a8459ef	0.0010097603
38	0x3b5b8915	0.0033498455
39	0xbc8a27e1	-0.016864719
40	0x3a4b243e	0.0007749236
41	0x3c23ebc5	0.010004942
42	0xbc651440	-0.013981879
43	0x3b4b4801	0.003101826
44	0xba8428f5	-0.0010083007
45	0xbc6d550b	-0.014485608
46	0xbbb46a62	-0.005505846
47	0xbc005992	-0.007833855
48	0x3c74017b	0.014892931
49	0x3be2cad8	0.0069211535
50	0x3d0ce6d4	0.034399822
51	0x3d308245	0.043092985
52	0x3c3519eb	0.011053543
53	0x3c19bd2e	0.009383483
54	0x3b90e171	0.004421406
55	0xbacb0166	-0.0015488088
56	0x3c5d6781	0.013513447
57	0xbc84f433	-0.016229725
58	0x3b768766	0.0037617325
59	0xba91993e	-0.0011108292
60	0x3c31579e	0.010824112
61	0x3d0733e3	0.033008467
62	0xbc55bf36	-0.0130460765
63	0x3ce758f3	0.028240656
64	0x3b090d0d	0.002091232
65	0x3bee461a	0.0072715404
66	0x3c00371a	0.007825637
67	0xbbf73f3b	-0.0075453795
68	0x3c5acd13	0.013354558
69	0x3ade9e93	0.0016984515
70	0xbc3d565a	-0.011556232
71	0xb9a89f8c	-0.0003216233
72	0x3c07cc26	0.008288419
73	0x3c907a3b	0.017636409
74	0x3b63cb56	0.0034758649
75	0x3c764248	0.015030451
76	0x3ce7b17c	0.028282873
77	0x3c6d74fe	0.014493225
78	0xbcb27c8c	-0.021787904
79	0xba977da8	-0.0011557834
80	0x3c66acd7	0.014079294
81	0xbd15bd44	-0.03655745
82	0xbc286754	-0.010278542
83	0x3bb191b9	0.005418983
84	0xbb3eda0f	-0.0029121672
85	0x3bffac7e	0.007802545
86	0x3c95043a	0.018190492
87	0xbc8580a7	-0.016296698
88	0x3b90f215	0.0044233897
89	0xbba628fa	-0.0050708028
90	0x3c29be57	0.010360322
91	0xbc1cc61e	-0.009568719
92	0xbc29b31e	-0.010357646
93	0xbc05243e	-0.008126317
94	0xbb9c5e30	-0.00477197
95	0x3b9a75b5	0.004713739
96	0xba40d23b	-0.00073555455
97	0xbb99dd49	-0.0046955687
98	0xbc05e5bd	-0.00817245
99	0xbcadb145	-0.021202693
100	0xbb813b04	-0.003943803
101	0xbbbce91d	-0.005765094
102	0xbb807ed2	-0.003921368
103	0xbc89a980	-0.016804457
104	0x3b8f4831	0.0043726196
105	0xbc967b72	-0.01836941
106	0x3b98dff8	0.004665371
107	0xbd05b092	-0.032639094
108	0x3b4acd6f	0.0030945202
109	0x3c775f76	0.015098443
110	0x3cad122b	0.021126827
111	0x3c7e492a	0.015520373
112	0xb91a8b1f	-0.00014738411
113	0x3cc70d59	0.024298357
114	0xbc8c3d66	-0.01711912
115	0xbc0d8a5f	-0.008638947
116	0x3bae5e00	0.0053212643
117	0x3c854cee	0.016272034
118	0x3c7bab0f	0.015360608
119	0x3c8ea1d4	0.01741115
120	0x3b099c01	0.0020997527
121	0x3c37a122	0.011207851
122	0xbb848bad	-0.004044971
123	0x3bee1bc0	0.0072664917
124	0xbcda25c3	-0.026629334
125	0x3b62f166	0.0034628748
126	0x3b957bec	0.004561892
127	0xbbd2e26a	-0.006435682

network_body._body_endoder.seq_layers.2.weight f4 [128, 128]
0	0xbb3e6cfa	-0.0029056654
1	0xbd9913a1	-0.07474447
2	0xbdba5081	-0.09097386
3	0x3d15f9b0	0.036615074
4	0x3e44384f	0.19162105
5	0xbd3a372c	-0.045462772
6	0x3cfe5d97	0.031050486
7	0x3d56b7d1	0.052421395
8	0x3d9e9ac0	0.0774436
9	0x3d1756c1	0.03694797
10	0xbdf30fea	-0.1186827
11	0x3d7efbeb	0.062251966
12	0x3b3308ea	0.0027318546
13	0xbe088445	-0.13331707
14	0x3d5988ab	0.053108852
15	0x3d8fd330	0.07022703
16	0x3de75f89	0.11297519
17	0x3caa9736	0.020824056
18	0x3d5ce309	0.053927455
19	0x3d1e7f1c	0.03869544
20	0xbd732ea6	-0.05937066
21	0xbd119de9	-0.035550985
22	0xbdaccb79	-0.08437247
23	0xbd9a9ff3	-0.07550039
24	0x3c40b06c	0.011760812
25	0xbd11467a	-0.035467602
26	0xbdb04305	-0.08606533
27	0xbda99062	-0.08279492
28	0x3e5ae7bf	0.21377467
29	0xbc33ddfe	-0.01097822
30	0x3a864be2	0.0010246004
31	0x3ded3e92	0.115842
32	0xbc7132e9	-0.014721611
33	0x3d15ed03	0.036602985
34	0x3e3ec51a	0.18629876
35	0xbbc05702	-0.005869747
36	0x3dce1e29	0.10064346
37	0xbdfcf3c7	-0.12351184
38	0xbdc8a012	-0.09796156
39	0xbbd878b7	-0.006606187
40	0x3d450031	0.048095886
41	0xbd8f1c58	-0.06987828
42	0x3e04437d	0.1291637
43	0x3cea07a8	0.028568104
44	0x3e560264	0.2089935
45	0x3de3ef33	0.11129608
46	0xbd9785b9	-0.073985524
47	0x3d578d8e	0.05262523
48	0x3d487356	0.048938118
49	0xbda40558	-0.08008832
50	0xbde40d9d	-0.11135409
51	0xbc51b19b	-0.012798692
52	0x3b0d1809	0.0021529219
53	0x3dadc17b	0.08484169
54	0xbd95fe90	-0.073239446
55	0x3d179815	0.03701027
56	0xbe2c39e3	-0.16818957
57	0xbe112867	-0.14175569
58	0xbe288fa4	-0.16461045
59	0x3c4d0cb0	0.012515232
60	0xbd371cf3	-0.044705343
61	0x3d512e11	0.051069323
62	0xbe4d3f0b	-0.2004358
63	0xbd7c06ee	-0.061530046
64	0xbc5e840d	-0.013581288
65	0xbd2000e8	-0.039063364
66	0xbdad9f39	-0.08477635
67	0xbcd7c1dd	-0.026337558
68	0xbd92be8c	-0.0716525
69	0x3c203f49	0.009780713
70	0x3e155b07	0.14585505
71	0xbd9ffdb9	-0.07812066
72	0xbc2c9e91	-0.010535852
73	0x3b62ebe7	0.0034625472
74	0xbdac013e	-0.083986744
75	0x3d816770	0.06318557
76	0xbcc36d65	-0.023855874
77	0xbd4ee48b	-0.050510924
78	0x3cbfc48a	0.023409147
79	0x3cb4a16a	0.022049624
80	0x3cd2d8d8	0.025738165
81	0x3d14d4a7	0.036335614
82	0x3d16d48d	0.036823798
83	0xbe07b062	-0.13250878
84	0xbd0e6b54	-0.034770325
85	0xbc86bcea	-0.016447503
86	0xbd84c6f0	-0.06483257
87	0xbd7e6413	-0.062107157
88	0x3de7d260	0.11319423
89	0xbd851d44	-0.064997226
90	0x3de3d39f	0.11124348
91	0x3e0e842a	0.13917604
92	0xbd12175b	-0.035666805
93	0x3d35f573	0.04442353
94	0xbd8967c5	-0.067092456
95	0xbc2ad9e2	-0.010427924
96	0xbdf11ab5	-0.11772672
97	0xbd83bdfa	-0.064327195
98	0xbd6e846f	-0.058231767
99	0xbddfe23b	-0.10931822
100	0x3d919a50	0.07109511
101	0x3c674695	0.014115949
102	0xbaa126ad	-0.0012294851
103	0xbc9f5d56	-0.019453686
104	0xbd857cea	-0.06517966
105	0xbdc4acb4	-0.09603253
106	0xbd831a39	-0.06401486
107	0x3d854e48	0.065090716
108	0xbd0cc3b8	-0.03436634
109	0xbd5f6868	-0.05454293
110	0xbd5f1907	-0.054467227
111	0xbd45b30f	-0.048266467
112	0xbd5b7ad2	-0.053583927
113	0xbd1ea60a	-0.038732566
114	0xbc23f96f	-0.0100082
115	0xbda00ab6	-0.07814543
116	0xbdb29074	-0.087189585
117	0xbe02862a	-0.12746492
118	0xbe3baee9	-0.18328442
119	0xbd9d45b8	-0.076793134
120	0x3ddcd0b7	0.10781997
121	0xbe178c73	-0.14799671
122	0x3e164cfa	0.14677802
123	0xbd9a0a6a	-0.075215176
124	0xbd3e3e9e	-0.046446435
125	0xbbd96be8	-0.006635178
126	0xbe0e6e9c	-0.13909382
127	0x39d4f3f6	0.00040617556
128	0x3dbeb730	0.09312284
129	0x3d38b34d	0.04509287
130	0xbdabc75c	-0.08387634
131	0x3ddecf4c	0.108793825
132	0xbdab541d	-0.08365653
133	0xbdca76e5	-0.098859586
134	0x3e0169e3	0.12638049
135	0xbcba8b32	-0.022771452
136	0x3d8ec723	0.06971576
137	0x3db8133b	0.08988043
138	0xbc9c1c6e	-0.019056525
139	0x3c227462	0.009915443
140	0xbce4009b	-0.02783232
141	0xbe009fcd	-0.12560959
142	0x3c64ea61	0.013971896
143	0x3d160e98	0.03663501
144	0x3dbb38a6	0.09141664
145	0x3c42f354	0.011898834
146	0x3d1eaae7	0.038737204
147	0xbb9bc02b	-0.004753133
148	0x3dcb2f7c	0.09921166
149	0xbd1a562e	-0.037679844
150	0x3e384670	0.1799562
151	0xbd15e6fb	-0.036597233
152	0xbddf3d72	-0.10900392
153	0xbe83f747	-0.25774595
154	0xbd1aab80	-0.03776121
155	0xbd87b204	-0.06625751
156	0x3d8b222b	0.067936264
157	0x3de069a1	0.10957647
158	0x3cc3f352	0.023919735
159	0xbc9cd01e	-0.019142207
160	0xbc5cb349	-0.013470479
161	0xbc66636c	-0.01406179
162	0x3de6a16c	0.112612575
163	0xbd08907d	-0.03334092
164	0x3cbb7277	0.02288173
165	0xbd1b777c	-0.037955746
166	0xbdb17bf7	-0.086662225
167	0x3d4970ac	0.049179718
168	0xbdaa5820	-0.0831759
169	0x3cf7200a	0.030166645
170	0x3da1b755	0.07896296
171	0xbdcfc125	-0.10144261
172	0x3d420e2d	0.0473768
173	0x3d7cf55f	0.06175744
174	0xbcf0b961	-0.02938527
175	0xbc1e2a99	-0.009653711
176	0x3c8c801c	0.017150931
177	0x3caf25f2	0.021380398
178	0x3e4a9fb2	0.19787481
179	0x3c3caab2	0.011515306
180	0xbda8c1b8	-0.08240074
181	0xbc153845	-0.009107654
182	0xbd0ad6a9	-0.033896122
183	0xbd7b7255	-0.061388332
184	0x3e44f7cf	0.19235156
185	0x3db13120	0.08651948
186	0xbdbc81e7	-0.092044644
187	0x3e32367a	0.17403594
188	0x3d618e42	0.05506731
189	0x3e2c83d0	0.16847157
190	0xbded5b27	-0.115896516
191	0x3cc96452	0.02458397
192	0xbdbdf2db	-0.09274837
193	0xbc1148a8	-0.00886742
194	0x3e0b9075	0.13629325
195	0xbc4dd9b3	-0.012564111
196	0x3cf324db	0.02968066
197	0xbe2dfaae	-0.16990158
198	0x3db87830	0.09007299
199	0xbe96ab64	-0.29427636
200	0x3d89212d	0.06695781
201	0x3dc87c2f	0.09789311
202	0xbda7beb4	-0.081906706
203	0x3c583d95	0.013198276
204	0xbdf7637a	-0.120795205
205	0xbcbccc78	-0.023046717
206	0xbc9946df	-0.018710552
207	0x3dc9cd6f	0.098536365
208	0xbe739667	-0.23787843
209	0xbde3dab7	-0.11125701
210	0x3c1c1c4b	0.00952823
211	0xbe1fab43	-0.15592675
212	0xbd9112cb	-0.070836626
213	0x3d838877	0.06422513
214	0xbd6e7450	-0.058216393
215	0xbda9ff62	-0.083006635
216	0x3e37b33c	0.17939466
217	0x3e464c46	0.19365034
218	0x3b3e13a8	0.0029003415
219	0xbd134847	-0.0359576
220	0xbd402a61	-0.046915416
221	0x3e2e8196	0.1704162
222	0xbda8ee27	-0.08248549
223	0xba0489ec	-0.00050559524
224	0x3d2250bc	0.039627776
225	0xbd773443	-0.060352575
226	0x3dddc3ec	0.10828385
227	0xbd591026	-0.052993916
228	0x3e5c7d3c	0.21532148
229	0xbd2236fd	-0.039603222
230	0xbe54ae44	-0.20769602
231	0xbe37c4db	-0.17946188
232	0x3c3e6327	0.011620319
233	0xbd8ea246	-0.06964545
234	0xbd044e4e	-0.03230124
235	0x3c0440cc	0.008072089
236	0xbde36d37	-0.111048155
237	0x3d429557	0.047505703
238	0x3d7e1030	0.062027156
239	0x3ccf18c1	0.025280358
240	0x3d1f3531	0.038869087
241	0x3c838bfa	0.016057957
242	0x3d15c0c6	0.036560796
243	0xbe3386aa	-0.17531839
244	0xbcf08092	-0.029358182
245	0xbe0171f3	-0.12641124
246	0x3dccdbe3	0.100028776
247	0xbc19db3a	-0.009390647
248	0x3d28bdd0	0.041196644
249	0x3cddbf4e	0.02706876
250	0x3d2729cc	0.040811345
251	0x3e3f053f	0.18654345
252	0x3d2537d2	0.040336438
253	0x3d808425	0.062752046
254	0x3e10dbd2	0.14146355
255	0x3d3a9dd1	0.04556066

network_body._body_endoder.seq_layers.2.bias f4 [128]
0	0xbc851496	-0.016245168
1	0x3c3dbf1d	0.0115812095
2	0x3cc0037b	0.02343916
3	0x3bdfb548	0.0068270303
4	0x3ccd3c82	0.025053266
5	0xbc924e27	-0.017859532
6	0xbc16dad4	-0.009207446
7	0x3b042eb5	0.002016944
8	0xbc583f0f	-0.013198628
9	0x3cb9c6e7	0.022677852
10	0x3c7db33f	0.01548463
11	0xbc1ce686	-0.009576445
12	0x3b9248b8	0.004464235
13	0xbc9cffa5	-0.01916487
14	0xbbda330e	-0.006658918
15	0x3bc8157c	0.0061060768
16	0x3c71db24	0.01476172
17	0x3d04e9a2	0.032449372
18	0xbc06c668	-0.008226015
19	0xbbd8b0e6	-0.006612885
20	0xbbf9e17a	-0.007625756
21	0x3d25d42e	0.040485553
22	0x3bebb155	0.0071927705
23	0x3cd7224f	0.026261477
24	0xbc4ab9f5	-0.012373437
25	0x3c2334d6	0.009961328
26	0x3b9861b6	0.00465032
27	0xbcb6b9f2	-0.022305463
28	0xbb0b8849	-0.002129095
29	0x3c33c6b4	0.0109726675
30	0x39a1fcc0	0.00030896626
31	0x3b2f85b6	0.0026782579
32	0x3ab1798c	0.0013540252
33	0x3c489a3c	0.012243804
34	0x3c81059d	0.015749747
35	0xbc1f532f	-0.009724422
36	0xbc43e768	-0.011957027
37	0x3c923843	0.017849093
38	0xbcaa6bc0	-0.020803332
39	0xbc889628	-0.016673163
40	0xbcabbbf2	-0.020963643
41	0x3c699665	0.014257048
42	0x3c161ebf	0.009162604
43	0xbc1a5f06	-0.009422069
44	0xbbbe60e4	-0.00580989
45	0xbc8095c2	-0.01569641
46	0xbbb30ab2	-0.0054639215
47	0x3c4152f6	0.011799565
48	0x3cecd35f	0.028909383
49	0xba6f9090	-0.0009138668
50	0xbb8b0f5e	-0.0042437753
51	0xbc7303dd	-0.014832464
52	0x3a3fabf4	0.0007311695
53	0x3c78560b	0.015157233
54	0xbc9cfe81	-0.019164326
55	0xb8c49c07	-9.375071e-05
56	0xbada59d7	-0.0016658854
57	0x3cb17258	0.021660969
58	0x3ba01e2f	0.0048864107
59	0x3c9477f7	0.01812361
60	0x3c36ef5c	0.011165466
61	0xbc35b3b6	-0.01109021
62	0xbc6873a5	-0.014187728
63	0x3c05bb55	0.008162339
64	0x3c43ce65	0.011951064
65	0x3a9e4aca	0.0012076732
66	0xbc24074d	-0.010011506
67	0x3c5f0d88	0.013614066
68	0xbc82bcd7	-0.015959186
69	0xbd0814ee	-0.033223085
70	0xbc2cfef0	-0.010558829
71	0xbc9ffed6	-0.019530695
72	0x3acd4bc1	0.0015662835
73	0x3c17e351	0.009270505
74	0xbbdad80e	-0.0066785878
75	0x3b4ec3eb	0.0031549882
76	0xbc3ceca2	-0.011531027
77	0xbc7afd40	-0.015319169
78	0x3c8865d3	0.016650116
79	0x3c293318	0.010327123
80	0x3bea865c	0.00715713
81	0xbb94aa0e	-0.0045368737
82	0x3c0186f2	0.007905709
83	0x3bade3d2	0.0053066993
84	0xbbc8f560	-0.0061327666
85	0xbb111ae7	-0.002214128
86	0xbbb11623	-0.00540425
87	0xbba829ad	-0.0051319213
88	0x3b254c00	0.0025222301
89	0x3cda059a	0.026614
90	0xbc352bda	-0.011057818
91	0xbc5d4454	-0.01350506
92	0x3b5163fc	0.0031950464
93	0x3b0a108a	0.0021066987
94	0x3c3d6d71	0.011561737
95	0x3bfa7754	0.0076436196
96	0x3b97dde8	0.0046346076
97	0x3ca8b71a	0.020595122
98	0x3c63aae3	0.013895723
99	0xbc9038d0	-0.017605215
100	0xbc0aef09	-0.008479842
101	0xbcbabe59	-0.022795843
102	0xba985213	-0.001162114
103	0x3b670801	0.0035252573
104	0x3c88e880	0.016712427
105	0x39ff9da0	0.0004875483
106	0x3b627e76	0.003456024
107	0x3c081609	0.008306035
108	0xbc9370d1	-0.017998131
109	0xbb59db30	-0.0033242218
110	0x3d089e12	0.033353873
111	0xbc2f078d	-0.010682953
112	0x3ca303f9	0.019899355
113	0x3c9a3058	0.01882188
114	0xbc56ecc8	-0.0131179765
115	0xbb9d952b	-0.004809042
116	0x3cd4646a	0.025926787
117	0x3b22b9b2	0.0024829921
118	0x3d2f843b	0.042850714
119	0x3baeee60	0.005338475
120	0x3d0ea9a6	0.034829758
121	0x3c732338	0.01483994
122	0x3cb847ca	0.02249517
123	0xbc8d44ea	-0.017244775
124	0xbb1b3f1d	-0.0023688741
125	0x3bd530e5	0.006506073
126	0x3afcc1e6	0.001928386
127	0xbcd63a94	-0.02615098

action_model._continuous_distribution.log_sigma f4 [1, 2]
0	0x3c73cc8f	0.014880314
1	0xbd022825	-0.031776566

action_model._continuous_distribution.mu.weight f4 [2, 128]
0	0xbc414ac5	-0.011797612
1	0x3d55b820	0.05217755
2	0xbcafe7e5	-0.02147288
3	0xbc9619f3	-0.01832292
4	0xbce53ce5	-0.027983138
5	0x3ba2783b	0.0049581802
6	0xbc16baba	-0.0091997925
7	0x3cf5a383	0.029985195
8	0x3c711ccf	0.014716341
9	0xbd1faeb8	-0.038984984
10	0xbd361463	-0.044453036
11	0x3d21d826	0.039512776
12	0xbcdbb25e	-0.02681845
13	0x3ca0ece8	0.019644216
14	0x3d46ff28	0.04858318
15	0xbc9b338b	-0.018945476
16	0xbc62b5a5	-0.013837253
17	0xbc6d0085	-0.014465456
18	0x3cd9e20c	0.026597045
19	0x3c85d247	0.01633562
20	0x3d87b9f1	0.066272624
21	0xbd91fd4f	-0.07128393
22	0xbc931f7a	-0.017959345
23	0xbd045f0c	-0.032317206
24	0x3b81f55b	0.003966016
25	0x3d20d556	0.039265953
26	0x3be37e93	0.006942579
27	0x3d0543a7	0.03253522
28	0x3c51e9fa	0.012812132
29	0xbc894a97	-0.0167592
30	0x3aad32e7	0.0013214023
31	0x3b4b7887	0.0031047182
32	0x3d3e8e4f	0.046522435
33	0x3d77b128	0.060471684
34	0xbbbc5e84	-0.005748572
35	0xbccd47e4	-0.025058694
36	0xbb1f7676	-0.0024332083
37	0xbbf53681	-0.007483304
38	0x3b83706c	0.0040112045
39	0xbbefc78d	-0.0073174895
40	0x3cbe80a3	0.023254698
41	0x3c32249f	0.010872989
42	0x3c5102a9	0.012756982
43	0xbb99efd7	-0.0046977806
44	0x3c8f376f	0.017482487
45	0x3cd314f4	0.025766827
46	0x3c02a7c9	0.007974573
47	0x3c7f0682	0.015565516
48	0xbc12abb6	-0.008952072
49	0xbb97de08	-0.0046346225
50	0xbb16d24a	-0.0023013526
51	0x3c969eca	0.018386263
52	0xbcaa5dca	-0.020796675
53	0xbc21c243	-0.009872976
54	0x3cf5c789	0.030002372
55	0xbd2fcd52	-0.042920418
56	0x3b800a40	0.003907472
57	0xbc840b0a	-0.016118545
58	0xbd0803fd	-0.03320693
59	0xbba6b67e	-0.0050876727
60	0xbcd0c695	-0.025485316
61	0x3c7406ae	0.014894171
62	0x3b82d0cf	0.003992177
63	0xbc5f53a5	-0.013630782
64	0xbc1c8ca8	-0.009555019
65	0x3cdee4ee	0.027208772
66	0xbb7f2671	-0.0038932825
67	0xbc9b5b97	-0.018964572
68	0xbcb7e775	-0.022449235
69	0x3d012812	0.031532355
70	0x3cd8c227	0.026459767
71	0x3cde09b6	0.02710424
72	0x3c8eaf73	0.017417645
73	0x3d2001eb	0.03906433
74	0xbbb8cb45	-0.005639466
75	0xbb9cf75e	-0.0047902307
76	0x3c9383ad	0.018007124
77	0x3ccb63a4	0.024827786
78	0xbc04c256	-0.008102974
79	0x3d3b13ed	0.0456733
80	0xbcd42e82	-0.025901083
81	0x3c32417b	0.01087987
82	0xbc3c91f4	-0.011509407
83	0x3bb34aad	0.0054715485
84	0x3bb0797a	0.005385575
85	0x3cbee2c6	0.023301493
86	0xbd10cebc	-0.035353407
87	0x3ca34dac	0.019934498
88	0xbced7c4a	-0.02898993
89	0xbb6f296e	-0.00364932
90	0xbb8643e9	-0.004097451
91	0xbb0fbafe	-0.0021931524
92	0x3c611c0a	0.013739595
93	0xbb9f9544	-0.004870089
94	0xbca8e9f7	-0.020619376
95	0xbcb9be2e	-0.022673693
96	0x3c396e1d	0.011317757
97	0xbc0abe26	-0.0084681865
98	0xbc9fb0ee	-0.019493546
99	0x3d077bfa	0.033077218
100	0x3c845f77	0.016158802
101	0x3c49e15b	0.012321795
102	0xbd4b809e	-0.049683206
103	0x3d27b638	0.04094526
104	0xbc465fa6	-0.012107765
105	0x3ba461c1	0.005016536
106	0xbbee7ef1	-0.007278316
107	0xbc7df066	-0.01549921
108	0x3cb9adb9	0.022665845
109	0xbbfc368b	-0.0076969317
110	0xbd292c86	-0.041302226
111	0x3ce78606	0.02826215
112	0xb691e6a7	-4.348188e-06
113	0xbcb275d9	-0.02178471
114	0x3c0c1759	0.008550488
115	0x3cd6df24	0.026229449
116	0xbc512ea1	-0.012767465
117	0x3cac4dff	0.021033285
118	0xbcef6a42	-0.029225472
119	0xbce8ae6d	-0.028403485
120	0xbd9d5b32	-0.0768341
121	0x3d1fde49	0.039030347
122	0xbd016ebb	-0.03159974
123	0xbbcdb992	-0.006278225
124	0x3c9d9de0	0.01924032
125	0xbd0a972e	-0.033835582
126	0xbbc4d365	-0.0060066455
127	0x3c34b216	0.011028787
128	0x3bb4534d	0.0055030943
129	0xbd3a24e4	-0.045445338
130	0xbcaec39d	-0.02133351
131	0x3cbb2c72	0.022848342
132	0xbcf0c47d	-0.029390568
133	0x3b5be3af	0.0033552458
134	0x3cec19ee	0.028820958
135	0xbca25d5d	-0.01981991
136	0x3c74da81	0.0149446735
137	0x3c02db1d	0.007986811
138	0xbd0e3d13	-0.034726214
139	0xbc26f252	-0.01018961
140	0x3ac3bf74	0.0014934377
141	0x3ca14ab5	0.019688943
142	0x3c950cb8	0.018194541
143	0x3c8e479a	0.017368127
144	0xbb010baf	-0.0019690802
145	0xbc8561f3	-0.016282057
146	0xbc027fc7	-0.007965035
147	0xbb76c1b6	-0.0037652082
148	0x3cb2a096	0.021805089
149	0x3c8b6ed0	0.017020613
150	0x3cd7e76d	0.02635547
151	0x3cbcfa80	0.023068666
152	0x3ca6eb4a	0.020375866
153	0x3c0f6321	0.0087516615
154	0xbc35edc4	-0.011104051
155	0x3c21ff2e	0.0098875
156	0xbbb1da7f	-0.005427658
157	0x3c2891c1	0.010288657
158	0xbb729d78	-0.0037020128
159	0xbc4bd098	-0.012439869
160	0x3c34a8d5	0.011026581
161	0xbc559089	-0.013034948
162	0xbc3f2a12	-0.011667745
163	0x3c981609	0.018565195
164	0xbb935059	-0.004495662
165	0xbb398c12	-0.0028312248
166	0x3cac52af	0.02103552
167	0x3c5c9e1c	0.013465431
168	0xbaf74e75	-0.0018867987
169	0xbcec302f	-0.02883157
170	0xbd1114fc	-0.035420403
171	0x3cc1b948	0.02364792
172	0xbafc8cea	-0.001926807
173	0xbc11f6d4	-0.008908946
174	0xbbb4a21c	-0.005512489
175	0xbc935334	-0.01798401
176	0xbbf120f0	-0.007358663
177	0xbc3df6e5	-0.011594509
178	0x3cc9cbe8	0.024633363
179	0x3ce8853c	0.028383844
180	0x3a9c2061	0.0011911505
181	0xbcd4afe6	-0.025962781
182	0xbc278826	-0.010225331
183	0xbc71f119	-0.014766955
184	0xbc65e7a0	-0.0140322745
185	0xbbfd3595	-0.0077273347
186	0x3c87385a	0.016506363
187	0xbc861ca9	-0.016371088
188	0xbc345044	-0.011005465
189	0x3c93ef9b	0.018058589
190	0x3c921899	0.017833995
191	0x3bbfc93a	0.0058528455
192	0xbce63446	-0.028101098
193	0xbcb80597	-0.022463603
194	0x3ca19e0f	0.019728689
195	0x3c70d561	0.014699311
196	0x3cfb7e7f	0.030699966
197	0x3c9739e0	0.018460214
198	0x3d2509db	0.040292602
199	0x3c9c5c42	0.01908696
200	0xbd1179ac	-0.035516426
201	0x3c1f71d4	0.009731729
202	0x3c048ac2	0.008089723
203	0xbc10d324	-0.008839402
204	0xbbb5e9c2	-0.0055515477
205	0x3d1d4ff2	0.03840632
206	0xb9ef02da	-0.00045587757
207	0xbc6ea113	-0.01456477
208	0x3c2419e0	0.010015935
209	0xbcc55287	-0.024087204
210	0xbc1b69e9	-0.0094857
211	0xbc2c80cf	-0.010528757
212	0xbb02e0cb	-0.0019970413
213	0x3af295a2	0.0018507729
214	0x3b1f7b4f	0.0024334972
215	0x3c15c292	0.009140627
216	0xbd0d85ed	-0.03455155
217	0xbc2bbd26	-0.010482108
218	0x3c51139b	0.012761022
219	0x3b986684	0.0046508927
220	0x3d0fc8c9	0.035103593
221	0x3b960ace	0.0045789247
222	0x3bd23637	0.0064151543
223	0xbabb682c	-0.0014298013
224	0xbd00a1db	-0.031404357
225	0xbc09bd6a	-0.008406976
226	0xbca5ce29	-0.020239906
227	0x3b6bd1ad	0.003598313
228	0x3d40f002	0.04710389
229	0x3c856278	0.016282305
230	0xbccb8efd	-0.024848456
231	0x3c14dc83	0.009085777
232	0xbc598fb3	-0.0132788895
233	0xbc6d83a5	-0.0144967185
234	0x3d09b66c	0.033621237
235	0xba93f65f	-0.0011288634
236	0x3a7e656a	0.0009704443
237	0xbb429995	-0.0029693593
238	0x3c165d96	0.009177586
239	0x3b34e36b	0.0027601372
240	0xbcc34d60	-0.023840606
241	0xbccdca13	-0.02512077
242	0xbb25cd90	-0.0025299527
243	0xbc0e1f9b	-0.0086745275
244	0xbb3a426d	-0.002842094
245	0xbc47d3a4	-0.012196455
246	0xbb11c6e8	-0.0022243802
247	0xbb8ec024	-0.004356401
248	0x3ce793b3	0.02826867
249	0xbcea51e2	-0.028603498
250	0xbb649768	-0.0034880284
251	0x3c50c781	0.012742878
252	0xbc5a1389	-0.013310322
253	0x3c364049	0.011123725
254	0xbb9500d2	-0.004547217
255	0x3bead7ab	0.007166823

action_model._continuous_distribution.mu.bias f4 [2]
0	0xbc85d10d	-0.016335035
1	0xbc64a95b	-0.013956393
