Assets/ML-Agents/shoottarget.onnx (onnx, 105559 bytes, 7 tensors)

network_body._body_endoder.seq_layers.0.weight f4 [256, 91]
0.32680327 -0.280338 -0.19368705 -0.044359665 -0.15273605 0.18877277 0.15484354 0.049461935
0.44782424 -0.20592752 -0.17369185 0.090005375 -0.07808598 0.087781586 0.22114496 -0.011244468
0.2799242 -0.048356347 0.015216235 -0.12255206 -0.065171495 -0.25014028 0.19506848 0.04617866
0.20434418 0.23460992 -0.233565 0.23951069 -0.0948519 0.25223008 -0.04534049 -0.057411592
0.13240454 -0.0861096 -0.16893013 0.057233978 0.057741903 0.16217597 0.17390943 -0.039521158
0.2596568 0.03155002 0.037609857 0.16877308 0.012435819 0.037088685 -0.018397816 0.10294845
-0.029824218 -0.108610064 0.025614414 0.101361826 -0.03199235 -0.0120910825 0.12798391 0.2799215
0.037413083 0.27699038 -0.06069599 0.168966 -0.16851506 0.024688426 -0.04105126 0.16065152
-0.062366657 -0.010655809 0.028846296 0.09733928 -0.03078486 -0.0127692465 0.11714463 -0.14041671
-0.057418004 0.11092154 0.090624586 0.03815944 -0.279844 -0.027289335 0.06922845 0.13048154
-0.10863559 0.027587386 0.07109485 0.014921855 -0.052106906 -0.09885689 -0.06542338 0.055760257
0.097012974 -0.078523494 0.103138566 0.007085375 0.012148517 0.1295268 0.065201156 0.12962404
0.08464676 -0.0336829 -0.1146889 -0.24784043 0.1969027 0.15894245 0.059948914 -0.021891087
0.16372606 -0.2718119 0.123777404 -0.26527616 -0.035952885 0.105449975 -0.14326838 -0.04705226
-0.16084866 -0.04884449 0.11959286 -0.21705288 0.14674062 -0.12008595 -0.094647184 0.016851265
-0.12870254 -0.14795442 0.025620703 0.11845193 -0.014461654 0.1372593 -0.04642257 -0.06298176
0.09529403 0.077313386 0.09976888 -0.32873788 0.07195015 -0.04490071 0.10105174 0.0013362666
0.06564937 0.043291602 0.055818748 -0.10156316 0.0028130647 0.01943909 -0.0072695618 0.00022905531
-0.15923402 -0.096900575 -0.02393654 -0.07021975 0.2500249 -0.019806366 0.077804774 0.21723308
-0.025013234 0.018916674 0.026683621 -0.087612286 -0.15845045 -0.151547 0.022339134 0.117326215
-0.07044532 0.014966004 -0.10061256 -0.06431945 1.1168918e-06 0.018462168 0.059386488 0.28149945
-0.035623733 -0.06496426 0.094482556 0.014451376 0.033561524 0.07716048 0.23777677 0.11851211
0.035609603 -0.02100673 0.022315873 -0.08026056 0.033669803 0.29474258 -0.2635696 -0.06260607
-0.0422236 -0.27850062 -0.117469504 -0.14396948 0.06681777 0.18762928 -0.15259889 0.00526336
0.034216017 0.09344319 0.03552361 -0.11488387 0.11586276 0.08705397 0.009485457 0.111690566
0.008917559 0.11876711 0.044115696 -0.13562472 0.29111412 0.09302685 0.10549541 -0.016550608
-0.08691772 0.20263448 -0.049533095 -0.14475024 -0.06571548 0.07341386 0.13954353 -7.364514e-05
-0.013049686 -0.08314042 -0.09710888 -0.028396927 -0.01891636 0.12626769 0.091173664 0.02936649
-0.08785618 -0.0084780045 -0.116933286 -0.0065100803 0.122852795 0.10995682 -0.117681175 -0.20747916
0.03936126 0.023741705 -0.07434085 -0.12302117 0.06314981 -0.17810684 -0.0674351 0.104631245
0.019566122 -0.2131037 -0.21882239 0.20258613 0.016707303 0.11400018 -0.07366878 0.07495398
0.08043999 0.07701781 0.10885004 -0.2069034 -0.0070650037 0.06185062 0.19845745 -0.086194836
00000000: c252 a73e 7688 8fbe e655 46be 7bb2 35bd
00000010: d766 1cbe a64d 413e 4e8f 1e3e 9998 4a3d
00000020: 3849 e53e aade 52be 47dc 31be bd54 b83d
00000030: 8beb 9fbd d5c6 b33d d373 623e b83a 38bc
00000040: 3a52 8f3e 4e11 46bd 844d 793c 93fc fabd
00000050: a278 85bd 6312 80be 08c0 473e d625 3d3d
00000060: 9a3f 513e 953d 703e aa2b 6fbe 4a42 753e
00000070: b741 c2bd 4d24 813e f3b6 39bd 6b28 6bbd
00000080: 0e95 073e 3b5a b0bd 05fc 2cbe 2d6e 6a3d
00000090: c682 6c3d 7511 263e 5015 323e f0e0 21bd
000000a0: bcf1 843e 983a 013d cb0c 1a3d dad2 2c3e
000000b0: 9bbf 4b3c 4eea 173d 04b7 96bc a3d6 d23d
000000c0: eb51 f4bc f46e debd 52d5 d13c ca96 cf3d
000000d0: 690a 03bd ad19 46bc 370e 033e df51 8f3e
000000e0: 763e 193d afd1 8d3e 5c9c 78bd 6c05 2d3e
000000f0: 368f 2cbe 623f ca3c 5e25 28bd d581 243e
00000100: 2e74 7fbd b495 2ebc 114f ec3c d159 c73d
00000110: 8830 fcbc 1a36 51bc 86e9 ef3d 66c9 0fbe
00000120: 242f 6bbd d52a e33d 6299 b93d 134d 1c3d
00000130: b647 8fbe e28d dfbc a5c7 8d3d f49c 053e
00000140: 567c debd f1fe e13c 2d9a 913d cc7a 743c
00000150: 0d6e 55bd 7b75 cabd b1fc 85bd de64 643d
00000160: bdae c63d edd0 a0bd 503a d33d 6f2c e83b
00000170: 930a 473c aca2 043e 2f88 853d 2abc 043e
00000180: 485b ad3d 15f7 09bd 04e2 eabd e2c9 7dbe
00000190: dda0 493e cfc1 223e fe8c 753d f054 b3bc
000001a0: cea7 273e ee2a 8bbe 027f fd3d 47d2 87be
000001b0: 5543 13bd 28f6 d73d f2b4 12be dfb9 40bd
000001c0: 83b5 24be 2911 48bd 1aed f43d 1c43 5ebe
000001d0: 2c43 163e 9fef f5bd 62d6 c1bd aa0b 8a3c
000001e0: 99ca 03be 5d81 17be 82e2 d13c ed96 f23d
000001f0: 93f0 6cbc b48d 0c3e 9825 3ebd 95fc 80bd
00000200: 8429 c33d 7b56 9e3d a053 cc3d 5550 a8be
00000210: 9a5a 933d cfe9 37bd 37f4 ce3d ab25 af3a
00000220: 2d73 863d 8952 313d 33a2 643d 5900 d0bd
00000230: 655b 383b ba3e 9f3c 8135 eebb 912e 7039
00000240: 3e0e 23be cf73 c6bd 9016 c4bc 5fcf 8fbd
00000250: 4403 803e f640 a2bc 1c58 9f3d 5972 5e3e
00000260: 8ee8 ccbc 24f7 9a3c 9c97 da3c 126e b3bd
00000270: d640 22be 232f 1bbe 8f00 b73c ba48 f03d
00000280: a345 90bd f833 753c f50d cebd eab9 83bd
00000290: 1ce8 9535 f93d 973c 3f3f 733d b220 903e
000002a0: 31ea 11bd fb0b 85bd 1280 c13d 77c5 6c3c
000002b0: cf77 093d 5006 9e3d c17b 733e 7ab6 f23d
000002c0: 60db 113d 4e16 acbc c7cf b63c a65f a4bd
000002d0: 59e9 093d 80e8 963e 98f2 86be 9c37 80bd
000002e0: a7f2 2cbd a297 8ebe da93 f0bd bc6c 13be
000002f0: c1d7 883d e421 403e e242 1cbe 4478 ac3b
00000300: 1826 0c3d 255f bf3d 3481 113d 3c48 ebbd
00000310: 7449 ed3d 5a49 b23d e468 1b3c 06be e43d
00000320: f41a 123c 2c3c f33d a9b2 343d 35e1 0abe
00000330: e90c 953e dc84 be3d fa0d d83d 2495 87bc
00000340: eb01 b2bd 6a7f 4f3e 37e3 4abd 6839 14be
00000350: d695 86bd 015a 963d 80e4 0e3e ef71 9ab8
00000360: 5ace 55bc 8645 aabd 05e1 c6bd aca0 e8bc
00000370: 7bf6 9abc 514c 013e 42b9 ba3d fe91 f03c
00000380: f1ed b3bd 54e7 0abc b87a efbd 8352 d5bb
00000390: 3f9a fb3d 0b31 e13d d402 f1bd 6b75 54be
000003a0: 4639 213d f77d c23c 0440 98bd 86f2 fbbd
000003b0: b054 813d a461 36be 6a1b 8abd e848 d63d
000003c0: 2249 a03c db37 5abe fa12 60be bd72 4f3e
000003d0: c1dd 883c ed78 e93d a8df 96bd 7981 993d
000003e0: b9bd a43d 83bb 9d3d c5ec de3d 7cde 53be
000003f0: 8c81 e7bb 1357 7d3d 6e38 4b3e eb86 b0bd

network_body._body_endoder.seq_layers.0.bias f4 [256]
0.037127003 0.0319021 -0.020027317 0.044342764 0.031329263 0.06871664 0.062858 0.006629329
0.019955583 0.06528251 0.016320575 0.039033946 0.010555237 0.038412813 -0.014041281 0.034489408
0.023900924 0.024922244 -0.02005181 0.042765338 -0.0045099347 -0.002235194 0.037313644 -0.0052021584
-0.015464646 0.025513714 0.020449696 -0.006153953 0.011369251 0.035121597 0.029336898 0.04366661
-0.011180473 0.03868682 0.021137798 0.040831853 0.03237579 0.033115096 -0.0056310324 0.005341206
0.024474692 -0.0028564036 0.015391605 0.004151925 -0.013214683 -0.0015778237 0.04306216 -0.00014205053
-0.016919969 -0.034510083 0.029821733 0.021600707 0.02966423 0.013757045 0.008335838 -0.017422207
0.05730322 0.043123674 0.004969567 0.003833494 0.051692266 0.05371314 0.0082412185 0.037113834
-0.0015494793 0.0002480643 0.01577287 0.05038571 0.03521622 0.01956492 0.01696544 0.023564197
0.06263441 0.02896118 0.046519805 0.019182136 0.06282715 0.048171207 -0.0009273574 -0.0059165903
-0.021046402 -0.008400508 0.078771435 0.014141801 0.043568406 -0.015412526 -0.0052713 0.034789722
-0.0003264068 0.044624615 0.0050732526 0.02235296 0.046198748 0.045506604 -0.0068637026 0.020195898
0.011869055 0.048413068 0.019390866 -0.0064981123 0.0019394321 0.023654649 0.005759484 -0.0050170165
0.070978224 0.006580046 0.025388228 0.029227206 0.06496195 0.02761311 0.026066765 0.020179933
0.039105374 0.009276208 0.008829021 0.044755492 0.0066953725 0.021707786 0.029256515 0.021790385
0.030102992 0.026115045 0.04361931 0.051145967 0.010170654 -0.01431057 0.009098167 -0.0066819694
0.052380443 0.030478347 0.009848426 -0.03174304 0.04542484 0.033437137 0.017838364 0.010439227
0.042703357 0.018257882 -0.0036399742 2.5149284e-05 0.02587309 0.0150368195 0.04670148 0.0044976464
0.029233687 -0.008602578 0.06424062 -0.011445327 -0.058418553 0.011346787 0.013982338 0.012936874
0.012372912 0.006292634 0.0556903 0.037484463 0.021627098 0.023940288 0.020100739 0.020411856
0.0050397133 0.017818479 -0.0044134827 -0.0030621872 0.027239807 0.0053358907 -0.0032604185 0.0070211724
0.080061726 0.04291549 0.020577667 0.029206617 0.026463022 -0.008413327 -0.006733119 0.011277542
0.01978806 0.017748386 0.03711125 0.00325299 0.020057565 -0.022393728 -0.03140919 0.018635161
0.0071202475 0.015727077 0.052642316 0.061569553 0.02503498 0.035004236 0.032833975 -0.005670819
0.037350062 0.007457631 0.01084053 0.0721442 0.050314087 -0.0035976581 0.020871727 0.005260433
0.08508662 0.040620934 0.023938619 0.006656448 0.024349663 0.0034458884 0.012872039 -0.0051935446
0.03898448 0.024031226 0.02270569 0.034088153 0.035058763 0.056621764 0.012252792 0.007491627
-0.008704537 0.026598722 -0.022544889 0.03575462 0.011452202 0.038181964 0.027150305 -0.010198702
-0.0064471774 -0.008630838 -0.0018667484 -0.015615852 -0.0040188427 -0.0024594879 0.031092867 -0.007249477
0.007047754 0.031118734 0.012555964 -0.0032332898 -0.00054156705 0.027551876 0.04944607 0.0693202
0.046932045 0.008465041 0.027033957 0.0057772174 -0.001056682 0.013692954 0.050160516 0.027657598
0.01917672 0.011418403 0.028918672 0.028799243 0.0116221635 0.06302722 0.033103693 0.010245764
00000000: 7c12 183d c7ab 023d 5410 a4bc c2a0 353d
00000010: 1d53 003d 4fbb 8c3d b2bb 803d d83a d93b
00000020: e479 a33c d6b2 853d bab2 853c 0fe2 1f3d
00000030: dfef 2c3c c156 1d3d 670d 66bc c444 0d3d
00000040: dfcb c33c bc29 cc3c b243 a4bc b52a 2f3d
00000050: 13c8 93bb 557c 12bb 31d6 183d de76 aabb
00000060: 6d5f 7dbc 2302 d13c 1f86 a73c 19a7 c9bb
00000070: 1846 3a3c aadb 0f3d ef53 f03c c2db 323d
00000080: 4d2e 37bc 1276 1e3d 2d29 ad3c 4d3f 273d
00000090: 7a9c 043d b2a3 073d 8684 b8bb 4905 af3b
000000a0: 267f c83c 8032 3bbb 122d 7c3c df0c 883b
000000b0: 6682 58bc face ceba f361 303d 66f3 14b9
000000c0: bf9b 8abc 725a 0dbd b54c f43c f7f3 b03c
000000d0: 6602 f33c 3b65 613c 0a93 083c 04b9 8ebc
000000e0: c8b6 6a3d 73a2 303d c0d7 a23b 5b3b 7b3b
000000f0: 45bb 533d 4f02 5c3d 2d06 073c ad04 183d
00000100: e617 cbba a00e 8239 1b36 813c 3f61 4e3d
00000110: e23e 103d 9c46 a03c 1bfb 8a3c b409 c13c
00000120: 7846 803d ff3f ed3c 8d8b 3e3d db23 9d3c
00000130: 85ab 803d 2c4f 453d e719 73ba f5df c1bb
00000140: 8169 acbc 49a2 09bc eb52 a13d 03b3 673c
00000150: c974 323d d284 7cbc dfba acbb ab7f 0e3d
00000160: 9421 abb9 4dc8 363d 873d a63b 8e1d b73c
00000170: e63a 3d3d 2265 3a3d e9e8 e0bb de71 a53c
00000180: 6d76 423c c84c 463d 98d9 9e3c 1eee d4bb
00000190: 8b34 fe3a 65c7 c13c 0eba bc3b c965 a4bb
000001a0: 085d 913d 6d9d d73b f9fa cf3c e56d ef3c
000001b0: c50a 853d e434 e23c f889 d53c 6350 a53c
000001c0: f52c 203d 3cfb 173c 99a7 103c 8951 373d
000001d0: db64 db3b 87d4 b13c 5cab ef3c c081 b23c
000001e0: 8d9a f63c 38ef d53c 29aa 323d 6f7e 513d
000001f0: d1a2 263c e276 6abc 7a10 153c 6cf4 dabb
00000200: e08c 563d baad f93c 4b5b 213c fd04 02bd
00000210: 660f 3a3d 61f5 083d c321 923c 4b09 2b3c
00000220: b7e9 2e3d 8e91 953c a28c 6ebb adf7 d237
00000230: cdf3 d33c fe5c 763c 0d4a 3f3d fe60 933b
00000240: 7c7b ef3c d4f1 0cbc 9690 833d 2e85 3bbc
00000250: 4b48 6fbd e0e7 393c 2d16 653c 2ff5 533c
00000260: c1b7 4a3c 7132 ce3b 831b 643d 4f89 193d
00000270: 502b b13c 6c1e c43c 4eaa a43c c436 a73c
00000280: 2e24 a53b 0ff8 913c fa9e 90bb faae 48bb
00000290: 0426 df3c b2d8 ae3b bfac 55bb dd11 e63b
000002a0: 67f7 a33d 27c8 2f3d 7f92 a83c b742 ef3c
000002b0: fbc8 d83c 0dd8 09bc 7fa1 dcbb 71c5 383c
000002c0: 921a a23c 1065 913c f701 183d 1e30 553b
000002d0: c34f a43c 0d73 b7bc eca6 00bd c4a8 983c
000002e0: f750 e93b 12d6 803c 789f 573d 5b30 7c3d
000002f0: 2916 cd3c 9a60 0f3d eb7c 063d 47d2 b9bb
00000300: 61fc 183d 255f f43b 7a9c 313c 57c0 933d
00000310: 2516 4e3d b0c6 6bbb 2ffb aa3c b65f ac3b
00000320: e541 ae3d 2362 263d ec1a c43c 551e da3b
00000330: f278 c73c 6ad4 613b 3fe5 523c 9c2e aabb
00000340: 31ae 1f3d 22dd c43c 4801 ba3c 05a0 0b3d
00000350: c799 0f3d 39ec 673d efbf 483c 527c f53b
00000360: 799d 0ebc 90e5 d93c 0fb0 b8bc 7073 123d
00000370: 04a2 3b3c b164 1c3d 516a de3c 7518 27bc
00000380: d842 d3bb 5c68 0dbc afad f4ba a1d9 7fbc
00000390: 7fb0 83bb 5c2f 21bb 78b6 fe3c 058d edbb
000003a0: d8f0 e63b b7ec fe3c 88b7 4d3c 9ae5 53bb
000003b0: f3f7 0dba 79b4 e13c f687 4a3d c0f7 8d3d
000003c0: d13b 403d f5b0 0a3c 5176 dd3c d04e bd3b
000003d0: 5d80 8aba 6958 603c 1d75 4d3d 3092 e23c
000003e0: 7f18 9d3c 4114 3b3c dae6 ec3c 64ec eb3c
000003f0: e36a 3e3c 6a14 813d bd97 073d d9dd 273c

action_model._continuous_distribution.log_sigma f4 [1, 3]
0.090685986 0.014262493 -0.17449246
00000000: 93b9 b93d 3bad 693c 27ae 32be

action_model._continuous_distribution.mu.weight f4 [3, 256]
-0.00041558107 -0.0044708494 0.007699572 0.044660076 -0.0037204674 0.01206151 0.034862377 -0.004633548
0.0029922375 -0.0075406544 0.011601384 0.011723454 0.015286589 -0.029470803 0.0036524632 0.022112917
-0.0071823495 -0.019124616 -0.004258802 0.011383686 -0.00019482747 -0.010635545 -0.018058216 0.01195336
0.008858153 0.01528483 -0.0017257247 -0.0067036403 0.0017620317 0.015578338 0.01617654 -0.0054543917
0.0010191817 -0.01383105 0.014665492 0.00043053855 0.0077699926 -0.0074178763 -0.00095235946 0.021188404
0.010662651 -0.0065513933 -0.012513436 0.0026714501 0.001928518 -0.01584256 0.0006662055 0.016461441
0.007571649 0.0016287265 0.0026899548 -0.014706696 0.014699424 0.029925754 -0.015626987 0.011893428
0.023755021 -0.022145296 0.00026081063 0.004375008 -0.0071221343 0.002756501 0.0028978726 -0.015032662
-0.010960564 -0.022732664 -0.0030984762 0.014656369 0.027129607 -0.010779297 -0.0038254159 0.0070201596
0.015390068 -0.013978875 0.02367711 -0.008338549 -0.0007451176 -0.020162407 5.8849728e-05 0.0076562283
-0.0032105367 -0.0019297816 0.0037035039 -0.003665981 -0.01771896 0.01597411 0.010902509 -0.0152422795
0.0055203685 0.011145877 0.010105024 0.0015115461 0.0003600064 -0.012758083 0.0042264173 0.012320759
0.008930038 0.002569307 0.013482865 -0.00048264634 -0.02912812 0.019139094 0.001607849 -0.011747144
0.00039481727 0.031629212 0.010128906 0.0184177 0.010942896 0.032915223 -0.051360127 -0.0028641976
0.010624773 0.0040746583 -0.01906348 -0.009275567 0.010987485 -0.021944817 -0.014100283 -0.032400817
-0.00341787 -0.033952743 -5.2005005e-05 0.011047724 0.0074119475 0.015216157 -0.01503346 0.00238576
-0.005925376 -0.013143945 0.00051044143 -0.015943984 0.027600644 0.019923883 0.0074370555 0.03563768
-0.0067346715 0.003509217 0.0020037722 -0.012222861 0.027147563 -0.00014149105 -0.010926063 -0.023386693
-0.012300762 0.007189649 -0.01072758 -0.006883656 -0.009123286 -0.016786175 -0.0064079026 0.0021765176
0.022920825 0.016063293 0.0039196424 -0.011085985 0.005587542 -0.0058939895 0.014440544 0.026703915
0.018202012 0.02177524 -0.013963473 0.027764887 0.038369883 0.0009934064 0.0090883905 0.037865695
-0.033034943 -0.004850549 -0.016370561 0.022970272 -0.0012206166 -0.033699557 -0.0027344858 0.016402831
-0.0194461 0.033245783 -0.0027244657 -0.0041658 0.0008739456 0.011588419 -0.016865157 -0.012999457
-0.0071085794 -0.010424767 0.03441849 0.041970182 -0.019594617 0.010029215 0.0025010963 -0.020252913
-0.0047346097 0.019313643 -0.0031593712 0.0018808298 0.01570747 -0.008307379 0.022740876 -0.029054942
0.0063335113 0.0480848 0.016165284 -0.024129024 -0.0014847982 0.015776424 0.006121557 -0.011441391
-0.022998251 -0.0044289366 0.03650456 0.03496079 -0.0009060035 0.0075269532 -0.0029425644 -0.013058995
0.0049243467 -0.000113513284 -0.0030334317 0.00037813434 -0.025899572 -0.011871804 0.0064385505 0.017416757
-0.012663424 -0.025490906 0.035678405 -0.012881289 -0.0116205895 0.004540229 -0.017778743 0.0030099023
-0.0018468202 0.031115027 -0.025183244 -0.017244983 -0.019513458 -0.012944997 -0.0048453268 -0.022817228
-0.0120898485 -0.0001969638 0.012521801 0.03433814 0.026457746 -0.010344505 -0.013557009 -0.01813799
-0.016217075 -0.030522777 -0.0077121914 -0.013589537 -0.0112897875 -0.0026197536 -0.027222347 0.046665404
00000000: 59e2 d9b9 3480 92bb b14c fc3b 7ced 363d
00000010: 16d3 73bb a49d 453c dacb 0e3d 05d5 97bb
00000020: 6a19 443b 9817 f7bb bb13 3e3c bb13 403c
00000030: 9a74 7a3c c16c f1bc 2a5e 6f3b 2626 b53c
00000040: ea59 ebbb 3aab 9cbc 6c8d 8bbb a482 3a3c
00000050: 9a4a 4cb9 b540 2ebc d3ee 93bc 07d8 433c
00000060: c921 113c 396d 7a3c b631 e2ba 36aa dbbb
00000070: f9f3 e63a 493c 7f3c aa84 843c c1ba b2bb
00000080: 1096 853a a19b 62bc 8847 703c e8b9 e139
00000090: 6c9b fe3b a811 f3bb c3a7 79ba 4e93 ad3c
000000a0: 66b2 2e3c 12ad d6bb 2805 4dbc 7f13 2f3b
000000b0: 53c6 fc3a 42c8 81bc 4ba4 2e3a 25da 863c
000000c0: 981b f83b fe7a d53a f449 303b 5bf4 70bc
000000d0: dad5 703c db26 f53c 2b04 80bc a7dc 423c
000000e0: e499 c23c 0d6a b5bc 69bd 8839 3a5c 8f3b
000000f0: cb60 e9bb 6aa6 343b 3cea 3d3b 8e4b 76bc
00000100: f093 33bc da39 babc ce0f 4bbb 4421 703c
00000110: e93e de3c a69b 30bc d4b3 7abb 5e09 e63b
00000120: a026 7c3c a707 65bc 80f6 c13c 699e 08bc
00000130: ff53 43ba a22b a5bc 6ad5 7638 19e1 fa3b
00000140: de67 52bb baf0 fcba 7cb6 723b f540 70bb
00000150: 5a27 91bc 23dc 823c 70a0 323c c1ba 79bc
00000160: 35e4 b43b 329d 363c 8b8f 253c 121f c63a
00000170: 3ebf bc39 4707 51bc c27d 8a3b 02dd 493c
00000180: 4b4f 123c d261 283b 3ce7 5c3c b20b fdb9
00000190: 189e eebc 97c9 9c3c 76be d23a 1877 40bc
000001a0: 7aff ce39 a28d 013d b6f3 253c b7e0 963c
000001b0: d549 333c 1dd2 063d ff5e 52bd 43b5 3bbb
000001c0: 8713 2e3c b684 853b 042b 9cbc 8cf8 17bc
000001d0: da04 343c 9ec5 b3bc e004 67bc b8b6 04bd
000001e0: 58fe 5fbb 0812 0bbd f31f 5ab8 8301 353c
000001f0: ecdf f23b 304d 793c e74e 76bc 695a 1c3b
00000200: a829 c2bb b359 57bc 25cf 053a f59c 82bc
00000210: bf1a e23c 6937 a33c 8bb2 f33b d1f8 113d
00000220: 85ae dcbb e4fa 653b b851 033b 6542 48bc
00000230: 9164 de3c 375d 14b9 3b03 33bc 7395 bfbc
00000240: 2389 49bc 2697 eb3b bbc2 2fbc 4b90 e1bb
00000250: d679 15bc 2983 89bc 62f9 d1bb e8a3 0e3b
00000260: 74c4 bb3c 2b97 833c 5870 803b fea1 35bc
00000270: b317 b73b 5e22 c1bb 0898 6c3c 2bc2 da3c
00000280: 631c 953c fd61 b23c 0dc7 64bc 3073 e33c
00000290: bd29 1d3d 3035 823a 79e7 143c 0f19 1b3d
000002a0: a64f 07bd 5bf1 9ebb 8e1b 86bc 272c bc3c
000002b0: 19fd 9fba 8c08 0abd 0f35 33bb 3b5f 863c
000002c0: 6d4d 9fbc bb2c 083d f38c 32bb 4381 88bb
000002d0: 7f19 653a 5add 3d3c cc28 8abc adfb 54bc
000002e0: 16ef e8bb a4cc 2abc 67fa 0c3d ede8 2b3d
000002f0: e484 a0bc 9451 243c 6fe9 233b 70e9 a5bc
00000300: c924 9bbb a537 9e3c 740d 4fbb 2d86 f63a
00000310: f4ac 803c ac1b 08bc 134b ba3c a104 eebc
00000320: 5889 cf3b 91f4 443d 0f6d 843c 3baa c5bc
00000330: 8f9d c2ba 8f3d 813c 5897 c83b ac74 3bbc
00000340: d466 bcbc 9d20 91bb ce85 153d 0c33 0f3d
00000350: de80 6dba a9a4 f63b 0ad8 40bb 65f5 55bc
00000360: 6a5c a13b fb0d eeb8 8acc 46bb 5540 c639
00000370: 572b d4bc f481 42bc 7afa d23b 96ad 8e3c
00000380: 407a 4fbc 4ed2 d0bc 8523 123d 0b0c 53bc
00000390: 4964 3ebc 34c6 943b baa4 91bc c841 453b
000003a0: 0111 f2ba f1e4 fe3c 174d cebc 5a45 8dbc
000003b0: b0da 9fbc 4117 54bc 8cc5 9ebb 32eb babc
000003c0: 8014 46bc 1188 4eb9 3d28 4d3c 26a6 0c3d
000003d0: eabd d83c 007c 29bc 381e 5ebc 1f96 94bc
000003e0: acd9 84bc e70a fabc 8db6 fcbb a6a6 5ebc
000003f0: cdf8 38bc 2cb0 2bbb 6601 dfbc 3924 3f3d

action_model._continuous_distribution.mu.bias f4 [3]
-0.0004556676 -0.0069832923 0.010900168
00000000: ace6 eeb9 1ad4 e4bb 9e96 323c

action_model._discrete_distribution.branches.0.weight f4 [2, 256]
-0.06263623 -0.017688394 0.018255042 -0.07420294 -0.04379149 -0.06977837 -0.10068085 -0.036017243
0.026845675 -0.18104655 0.063005365 0.080147736 0.07409604 0.120587304 -0.007812629 -0.046292804
0.024512962 0.03098062 0.022870645 -0.14592576 0.014855439 0.023201028 0.037488468 0.008486727
0.012980867 0.024814539 -0.110338345 0.026870562 -0.014057066 0.05319368 0.091684125 0.12255885
0.019461608 0.06813057 -0.011433114 0.054008927 -0.08066811 0.10332145 0.0036826094 -0.012936625
0.02911195 0.0001289789 -0.012976639 -0.025931433 -0.00015287081 0.016936274 -0.08230009 0.0584305
-0.0046232073 -0.017283658 0.08389388 0.053301796 -0.12683287 0.028548826 0.041351754 -0.017211288
-0.017121367 -0.020701582 0.04512985 0.018923577 0.024838885 -0.0041075917 -0.014320393 0.0499518
0.02336476 0.015557393 0.07629715 0.08872947 -0.0019977433 0.07146409 0.049751922 -0.060771815
0.10967962 -0.071386546 -0.044392575 0.047702495 0.16036956 0.063102 0.03558272 -0.0238283
-0.002882808 0.011270476 -0.1761094 -0.02402628 0.1368948 0.0011298872 0.03143073 0.13438292
-0.02277536 0.0752865 0.047076475 -0.071213886 0.10331133 0.048737176 -0.038180105 -0.06571638
0.063299865 0.056650393 0.021305338 0.034419674 0.0012662339 -0.028481033 0.028754156 -0.025763184
-0.1372021 -0.037068836 -0.04674813 0.03411104 -0.13579334 0.025093574 0.07758666 0.013614788
0.033242572 -0.012985811 0.023225294 -0.04136462 -0.018167108 0.01710637 -0.07992662 0.055860493
0.04892363 0.09036434 0.10775226 0.07395623 0.021435954 0.006616826 -0.007925956 0.0191575
0.11902416 0.07100794 -0.03400169 -0.02814414 -0.038551822 0.012548743 0.056311723 -0.053091336
0.042459115 0.047363155 0.0050332597 0.0028815945 -0.08254287 0.0148780085 0.010023999 0.031895082
0.046856485 -0.013607213 0.1291475 -0.01347126 0.000797211 0.009591847 -0.0105319545 0.08353415
0.019274801 0.05019641 -0.16478534 0.06082437 -0.06068888 -0.07319781 0.011891949 0.02481576
0.038984664 -0.08671243 0.0005957991 -0.034423307 -0.07392048 0.041271247 0.046191048 0.020294854
-0.18244007 0.103777215 0.00022308849 0.0113969 -0.01288139 -0.003534974 0.022119388 0.0078700185
0.02618738 0.02104216 -0.15050179 -0.031031579 0.017513903 0.0128204385 -0.008240565 0.021262841
-0.0005268198 0.034530547 0.07597672 -0.103037566 0.03228581 -0.06394874 -0.024983948 -0.027296515
-0.04218675 -0.0042123827 -0.014670917 0.097833075 -0.074071854 -0.0167409 -0.053084757 -0.005644257
0.1359486 -0.17471571 0.064547025 0.029717695 -0.00288643 -0.015387912 0.037880056 -0.022999415
-0.05479031 0.02343177 -0.051618848 0.06436606 0.13531405 0.032101534 0.018395687 0.010558408
0.002506184 0.062018894 -0.030660734 0.13885379 -0.025283586 0.103619285 0.08731853 -0.02336933
0.01173116 -0.03911782 -0.031399723 -0.012536699 -0.020916896 0.017064301 0.10885075 -0.023652578
0.033134054 0.083756715 -0.0016020618 0.013139812 0.01867525 0.06719473 0.08960817 -0.13007998
0.035350632 -0.012767325 0.070896514 -0.0017011568 -0.053598512 -0.008465818 0.020314593 -0.014759406
0.072896555 -0.05185409 -0.044740856 -0.08079505 -0.032572854 0.15167436 0.05117763 0.041263238
00000000: 6c47 80bd 40e7 90bc 998b 953c b6f7 97bd
00000010: b55e 33bd f6e7 8ebd c331 cebd d186 13bd
00000020: 76eb db3c 4464 39be f508 813d 7f24 a43d
00000030: aabf 973d 7af6 f63d 8b00 00bc 869d 3dbd
00000040: 68cf c83c 12cb fd3c 385b bb3c 906d 15be
00000050: 3a64 733c 1510 be3c 828d 193d ea0b 0b3c
00000060: b4ad 543c dc47 cb3c 12f9 e1bd a71f dc3c
00000070: 9c4f 66bc 9ee1 593d e3c4 bb3d 2200 fb3d
00000080: f36d 9f3c 0a88 8b3d f551 3bbc 7738 5d3d
00000090: 5235 a5bd 329a d33d ef57 713b 23f4 53bc
000000a0: 2f7c ee3c 833e 0739 f89b 54bc 286e d4bc
000000b0: f24b 20b9 f1bd 8a3c f38c a8bd d254 6f3d
000000c0: 467e 97bb 7596 8dbc 8ed0 ab3d fc52 5a3d
000000d0: 7ae0 01be 3adf e93c 7560 293d b0fe 8cbc
000000e0: 1c42 8cbc 5d96 a9bc 14da 383d 9e05 9b3c
000000f0: eb7a cb3c fa98 86bb 15a0 6abc 429a 4c3d
00000100: 7467 bf3c 70e4 7e3c ae41 9c3d ccb7 b53d
00000110: 92ec 02bb c45b 923d acc8 4b3d deeb 78bd
00000120: b59f e03d 1c33 92bd fdd4 35bd b163 433d
00000130: eb37 243e 9f3b 813d 30bf 113d 9133 c3bc
00000140: 7eed 3cbb cda7 383c 0656 34be c3d2 c4bc
00000150: 272e 0c3e b918 943a 82bd 003d ad9b 093e
00000160: 6493 babc cf2f 9a3d 43d3 403d 96d8 91bd
00000170: e494 d33d a2a0 473d be62 1cbd 4f96 86bd
00000180: 5ca3 813d 3e0a 683d 8888 ae3c a5fb 0c3d
00000190: c2f7 a53a 0e51 e9bc d68d eb3c 500d d3bc
000001a0: b57e 0cbe 7ed5 17bd f87a 3fbd 05b8 0b3d
000001b0: 690d 0bbe 0a91 cd3c c1e5 9e3d 8f10 5f3c
000001c0: 5d29 083d 70c2 54bc f942 be3c f36d 29bd
000001d0: 30d3 94bc a822 8c3c 91b0 a3bd f9cd 643d
000001e0: 2564 483d f010 b93d 38ad dc3d 5d76 973d
000001f0: 749a af3c f6d1 d83b dedb 01bc 30f0 9c3c
00000200: f0c2 f33d 9c6c 913d 5b45 0bbd 8a8e e6bc
00000210: 84e8 1dbd 3e99 4d3c 1fa7 663d 4d76 59bd
00000220: 9ce9 2d3d deff 413d 0bee a43b 22d9 3c3b
00000230: 3c0c a9bd e4c2 733c b33b 243c 6ba4 023d
00000240: 96ec 3f3d caf0 5ebc 3e3f 043e 8fb6 5cbc
00000250: edfb 503a 1f27 1d3c 388e 2cbc f413 ab3d
00000260: 30e6 9d3c c09a 4d3d 7dbd 28be f922 793d
00000270: e794 78bd bce8 95bd 73d6 423c 6c4a cb3c
00000280: 62ae 1f3d 4996 b1bd 672f 1c3a 74ff 0cbd
00000290: 9f63 97bd 0a0c 293d d332 3d3d 6541 a63c
000002a0: 92d1 3abe 2689 d43d dcec 6939 10ba 3a3c
000002b0: 770c 53bc 06ab 67bb b833 b53c 40f1 003c
000002c0: eb86 d63c 9c60 ac3c 241d 1abe f035 febc
000002d0: 5179 8f3c d10c 523c 6f03 07bc 692f ae3c
000002e0: 471a 0aba e76f 0d3d af99 9b3d 5c05 d3bd
000002f0: 203e 043d 8ff7 82bd 23ab ccbc f19c dfbc
00000300: 03cc 2cbd 0708 8abb 495e 70bc b55c c83d
00000310: fcb2 97bd 3624 89bc 676f 59bd 76f3 b8bb
00000320: 1c36 0b3e ade8 32be 3b31 843d 8672 f33c
00000330: 422a 3dbb 951d 7cbc 1e28 1b3d 4569 bcbc
00000340: ce6b 60bd fcf3 bf3c 496e 53bd 5ad2 833d
00000350: c48f 0a3e e67c 033d 8db2 963c 2cfd 2c3c
00000360: ca3e 243b 8607 7e3d 382c fbbc b02f 0e3e
00000370: 861f cfbc 5936 d43d 0fd4 b23d 0a71 bfbc
00000380: 0d34 403c 023a 20bd ff9c 00bd ba66 4dbc
00000390: e959 abbc 6fca 8b3c 24ed de3d 0dc3 c1bc
000003a0: 93b7 073d a488 ab3d 46fc d1ba 5e48 573c
000003b0: d6fc 983c 649d 893d 7d84 b73d b033 05be
000003c0: d3cb 103d 0b2e 51bc 3132 913d 5af9 deba
000003d0: 1d8a 5bbd 37b4 0abc ca6a a63c 70d1 71bc
000003e0: ca4a 953d f464 54bd 3042 37bd e077 a5bd
000003f0: 1d6b 05bd 8650 1b3e a29f 513d a403 293d

action_model._discrete_distribution.branches.0.bias f4 [2]
0.012190569 -0.012190542
00000000: f4ba 473c d7ba 47bc
